…
2025-01-29 02:10:14,215 tacult.pit INFO ----------------------------------------------------------------------------------------------------

2025-01-29 02:10:14,216 tacult.pit INFO Playing match: r3_sims2 vs resnet_sims64
2025-01-29 02:12:52,885 __main__ INFO Loading UtacGame...
2025-01-29 02:12:52,887 tacult.base.utils WARNING CUDA requested but not available! Using CPU instead.
2025-01-29 02:12:54,115 tacult.base.nn_wrapper INFO Network _UtacNNet initialized on device cpu
2025-01-29 02:12:54,365 tacult.base.nn_wrapper INFO Loaded network from ./temp/run3/best.pt
2025-01-29 02:12:54,365 tacult.base.nn_wrapper INFO Network architecture:
2025-01-29 02:12:54,366 tacult.base.nn_wrapper INFO _UtacNNet(
  (conv1): Conv2d(4, 256, kernel_size=(3, 3), stride=(1, 1), padding=(1, 1))
  (conv2): Conv2d(256, 256, kernel_size=(1, 1), stride=(1, 1))
  (conv3): Conv2d(256, 512, kernel_size=(3, 3), stride=(1, 1), padding=(1, 1))
  (conv4): Conv2d(512, 512, kernel_size=(1, 1), stride=(1, 1))
  (bn1): BatchNorm2d(256, eps=1e-05, momentum=0.1, affine=True, track_running_stats=True)
  (bn2): BatchNorm2d(256, eps=1e-05, momentum=0.1, affine=True, track_running_stats=True)
  (bn3): BatchNorm2d(512, eps=1e-05, momentum=0.1, affine=True, track_running_stats=True)
  (bn4): BatchNorm2d(512, eps=1e-05, momentum=0.1, affine=True, track_running_stats=True)
  (fc1): Linear(in_features=41472, out_features=512, bias=True)
  (fc_bn1): BatchNorm1d(512, eps=1e-05, momentum=0.1, affine=True, track_running_stats=True)
  (pi): Linear(in_features=512, out_features=81, bias=True)
  (v): Linear(in_features=512, out_features=1, bias=True)
)
2025-01-29 02:12:54,367 tacult.base.utils WARNING CUDA requested but not available! Using CPU instead.
2025-01-29 02:12:54,377 tacult.base.nn_wrapper INFO Network _UtacNNet initialized on device cpu
2025-01-29 02:12:54,386 tacult.base.nn_wrapper INFO Loaded network from ./temp/resnet/best.pt
2025-01-29 02:12:54,390 tacult.base.nn_wrapper INFO Network architecture:
2025-01-29 02:12:54,391 tacult.base.nn_wrapper INFO _UtacNNet(
  (conv_in): Conv2d(4, 32, kernel_size=(3, 3), stride=(1, 1), padding=(1, 1))
  (bn_in): BatchNorm2d(32, eps=1e-05, momentum=0.1, affine=True, track_running_stats=True)
  (res1): ResidualBlock(
    (conv1): Conv2d(32, 32, kernel_size=(3, 3), stride=(1, 1), padding=(1, 1))
    (bn1): BatchNorm2d(32, eps=1e-05, momentum=0.1, affine=True, track_running_stats=True)
    (conv2): Conv2d(32, 32, kernel_size=(3, 3), stride=(1, 1), padding=(1, 1))
    (bn2): BatchNorm2d(32, eps=1e-05, momentum=0.1, affine=True, track_running_stats=True)
  )
  (res2): ResidualBlock(
    (conv1): Conv2d(32, 32, kernel_size=(3, 3), stride=(1, 1), padding=(1, 1))
    (bn1): BatchNorm2d(32, eps=1e-05, momentum=0.1, affine=True, track_running_stats=True)
    (conv2): Conv2d(32, 32, kernel_size=(3, 3), stride=(1, 1), padding=(1, 1))
    (bn2): BatchNorm2d(32, eps=1e-05, momentum=0.1, affine=True, track_running_stats=True)
  )
  (fc1): Linear(in_features=2592, out_features=256, bias=True)
  (fc_bn1): BatchNorm1d(256, eps=1e-05, momentum=0.1, affine=True, track_running_stats=True)
  (pi): Linear(in_features=256, out_features=81, bias=True)
  (v): Linear(in_features=256, out_features=1, bias=True)
)
2025-01-29 02:12:54,391 tacult.pit INFO Starting round 1/1000
2025-01-29 02:12:54,396 tacult.pit INFO Playing match: r3_sims64 vs resnet_sims64
2025-01-29 02:25:41,756 __main__ INFO Loading UtacGame...
2025-01-29 02:25:51,387 __main__ INFO Loading UtacGame...
2025-01-29 02:33:18,599 __main__ INFO Loading UtacGame...
2025-01-29 02:33:18,600 tacult.base.utils WARNING CUDA requested but not available! Using CPU instead.
2025-01-29 02:33:19,497 tacult.base.nn_wrapper INFO Network _UtacNNet initialized on device cpu
2025-01-29 02:33:19,528 tacult.base.nn_wrapper INFO Loaded network from ./temp/resnet/checkpoint_1.pt
2025-01-29 02:33:19,528 tacult.base.nn_wrapper INFO Network architecture:
2025-01-29 02:33:19,528 tacult.base.nn_wrapper INFO _UtacNNet(
  (conv_in): Conv2d(4, 32, kernel_size=(3, 3), stride=(1, 1), padding=(1, 1))
  (bn_in): BatchNorm2d(32, eps=1e-05, momentum=0.1, affine=True, track_running_stats=True)
  (res1): ResidualBlock(
    (conv1): Conv2d(32, 32, kernel_size=(3, 3), stride=(1, 1), padding=(1, 1))
    (bn1): BatchNorm2d(32, eps=1e-05, momentum=0.1, affine=True, track_running_stats=True)
    (conv2): Conv2d(32, 32, kernel_size=(3, 3), stride=(1, 1), padding=(1, 1))
    (bn2): BatchNorm2d(32, eps=1e-05, momentum=0.1, affine=True, track_running_stats=True)
  )
  (res2): ResidualBlock(
    (conv1): Conv2d(32, 32, kernel_size=(3, 3), stride=(1, 1), padding=(1, 1))
    (bn1): BatchNorm2d(32, eps=1e-05, momentum=0.1, affine=True, track_running_stats=True)
    (conv2): Conv2d(32, 32, kernel_size=(3, 3), stride=(1, 1), padding=(1, 1))
    (bn2): BatchNorm2d(32, eps=1e-05, momentum=0.1, affine=True, track_running_stats=True)
  )
  (fc1): Linear(in_features=2592, out_features=256, bias=True)
  (fc_bn1): BatchNorm1d(256, eps=1e-05, momentum=0.1, affine=True, track_running_stats=True)
  (pi): Linear(in_features=256, out_features=81, bias=True)
  (v): Linear(in_features=256, out_features=1, bias=True)
)
2025-01-29 02:33:19,530 tacult.base.utils WARNING CUDA requested but not available! Using CPU instead.
2025-01-29 02:33:19,537 tacult.base.nn_wrapper INFO Network _UtacNNet initialized on device cpu
2025-01-29 02:33:19,561 tacult.base.nn_wrapper INFO Loaded network from ./temp/resnet/checkpoint_2.pt
2025-01-29 02:33:19,561 tacult.base.nn_wrapper INFO Network architecture:
2025-01-29 02:33:19,561 tacult.base.nn_wrapper INFO _UtacNNet(
  (conv_in): Conv2d(4, 32, kernel_size=(3, 3), stride=(1, 1), padding=(1, 1))
  (bn_in): BatchNorm2d(32, eps=1e-05, momentum=0.1, affine=True, track_running_stats=True)
  (res1): ResidualBlock(
    (conv1): Conv2d(32, 32, kernel_size=(3, 3), stride=(1, 1), padding=(1, 1))
    (bn1): BatchNorm2d(32, eps=1e-05, momentum=0.1, affine=True, track_running_stats=True)
    (conv2): Conv2d(32, 32, kernel_size=(3, 3), stride=(1, 1), padding=(1, 1))
    (bn2): BatchNorm2d(32, eps=1e-05, momentum=0.1, affine=True, track_running_stats=True)
  )
  (res2): ResidualBlock(
    (conv1): Conv2d(32, 32, kernel_size=(3, 3), stride=(1, 1), padding=(1, 1))
    (bn1): BatchNorm2d(32, eps=1e-05, momentum=0.1, affine=True, track_running_stats=True)
    (conv2): Conv2d(32, 32, kernel_size=(3, 3), stride=(1, 1), padding=(1, 1))
    (bn2): BatchNorm2d(32, eps=1e-05, momentum=0.1, affine=True, track_running_stats=True)
  )
  (fc1): Linear(in_features=2592, out_features=256, bias=True)
  (fc_bn1): BatchNorm1d(256, eps=1e-05, momentum=0.1, affine=True, track_running_stats=True)
  (pi): Linear(in_features=256, out_features=81, bias=True)
  (v): Linear(in_features=256, out_features=1, bias=True)
)
2025-01-29 02:33:19,562 tacult.pit INFO Starting round 1/1
2025-01-29 02:33:19,562 tacult.pit INFO Playing match: ._temp_resnet_2_sims2 vs Random
2025-01-29 02:34:37,743 __main__ INFO Loading UtacGame...
2025-01-29 02:34:37,744 tacult.base.utils WARNING CUDA requested but not available! Using CPU instead.
2025-01-29 02:34:38,448 tacult.base.nn_wrapper INFO Network _UtacNNet initialized on device cpu
2025-01-29 02:34:38,481 tacult.base.nn_wrapper INFO Loaded network from ./temp/resnet/checkpoint_1.pt
2025-01-29 02:34:38,482 tacult.base.nn_wrapper INFO Network architecture:
2025-01-29 02:34:38,482 tacult.base.nn_wrapper INFO _UtacNNet(
  (conv_in): Conv2d(4, 32, kernel_size=(3, 3), stride=(1, 1), padding=(1, 1))
  (bn_in): BatchNorm2d(32, eps=1e-05, momentum=0.1, affine=True, track_running_stats=True)
  (res1): ResidualBlock(
    (conv1): Conv2d(32, 32, kernel_size=(3, 3), stride=(1, 1), padding=(1, 1))
    (bn1): BatchNorm2d(32, eps=1e-05, momentum=0.1, affine=True, track_running_stats=True)
    (conv2): Conv2d(32, 32, kernel_size=(3, 3), stride=(1, 1), padding=(1, 1))
    (bn2): BatchNorm2d(32, eps=1e-05, momentum=0.1, affine=True, track_running_stats=True)
  )
  (res2): ResidualBlock(
    (conv1): Conv2d(32, 32, kernel_size=(3, 3), stride=(1, 1), padding=(1, 1))
    (bn1): BatchNorm2d(32, eps=1e-05, momentum=0.1, affine=True, track_running_stats=True)
    (conv2): Conv2d(32, 32, kernel_size=(3, 3), stride=(1, 1), padding=(1, 1))
    (bn2): BatchNorm2d(32, eps=1e-05, momentum=0.1, affine=True, track_running_stats=True)
  )
  (fc1): Linear(in_features=2592, out_features=256, bias=True)
  (fc_bn1): BatchNorm1d(256, eps=1e-05, momentum=0.1, affine=True, track_running_stats=True)
  (pi): Linear(in_features=256, out_features=81, bias=True)
  (v): Linear(in_features=256, out_features=1, bias=True)
)
2025-01-29 02:34:38,483 tacult.base.utils WARNING CUDA requested but not available! Using CPU instead.
2025-01-29 02:34:38,492 tacult.base.nn_wrapper INFO Network _UtacNNet initialized on device cpu
2025-01-29 02:34:38,516 tacult.base.nn_wrapper INFO Loaded network from ./temp/resnet/checkpoint_2.pt
2025-01-29 02:34:38,517 tacult.base.nn_wrapper INFO Network architecture:
2025-01-29 02:34:38,518 tacult.base.nn_wrapper INFO _UtacNNet(
  (conv_in): Conv2d(4, 32, kernel_size=(3, 3), stride=(1, 1), padding=(1, 1))
  (bn_in): BatchNorm2d(32, eps=1e-05, momentum=0.1, affine=True, track_running_stats=True)
  (res1): ResidualBlock(
    (conv1): Conv2d(32, 32, kernel_size=(3, 3), stride=(1, 1), padding=(1, 1))
    (bn1): BatchNorm2d(32, eps=1e-05, momentum=0.1, affine=True, track_running_stats=True)
    (conv2): Conv2d(32, 32, kernel_size=(3, 3), stride=(1, 1), padding=(1, 1))
    (bn2): BatchNorm2d(32, eps=1e-05, momentum=0.1, affine=True, track_running_stats=True)
  )
  (res2): ResidualBlock(
    (conv1): Conv2d(32, 32, kernel_size=(3, 3), stride=(1, 1), padding=(1, 1))
    (bn1): BatchNorm2d(32, eps=1e-05, momentum=0.1, affine=True, track_running_stats=True)
    (conv2): Conv2d(32, 32, kernel_size=(3, 3), stride=(1, 1), padding=(1, 1))
    (bn2): BatchNorm2d(32, eps=1e-05, momentum=0.1, affine=True, track_running_stats=True)
  )
  (fc1): Linear(in_features=2592, out_features=256, bias=True)
  (fc_bn1): BatchNorm1d(256, eps=1e-05, momentum=0.1, affine=True, track_running_stats=True)
  (pi): Linear(in_features=256, out_features=81, bias=True)
  (v): Linear(in_features=256, out_features=1, bias=True)
)
2025-01-29 02:34:38,520 tacult.base.utils WARNING CUDA requested but not available! Using CPU instead.
2025-01-29 02:34:38,645 tacult.base.nn_wrapper INFO Network _UtacNNet initialized on device cpu
2025-01-29 02:34:38,959 tacult.base.nn_wrapper INFO Loaded network from ./temp/run3/checkpoint_46.pt
2025-01-29 02:34:38,960 tacult.base.nn_wrapper INFO Network architecture:
2025-01-29 02:34:38,960 tacult.base.nn_wrapper INFO _UtacNNet(
  (conv1): Conv2d(4, 256, kernel_size=(3, 3), stride=(1, 1), padding=(1, 1))
  (conv2): Conv2d(256, 256, kernel_size=(1, 1), stride=(1, 1))
  (conv3): Conv2d(256, 512, kernel_size=(3, 3), stride=(1, 1), padding=(1, 1))
  (conv4): Conv2d(512, 512, kernel_size=(1, 1), stride=(1, 1))
  (bn1): BatchNorm2d(256, eps=1e-05, momentum=0.1, affine=True, track_running_stats=True)
  (bn2): BatchNorm2d(256, eps=1e-05, momentum=0.1, affine=True, track_running_stats=True)
  (bn3): BatchNorm2d(512, eps=1e-05, momentum=0.1, affine=True, track_running_stats=True)
  (bn4): BatchNorm2d(512, eps=1e-05, momentum=0.1, affine=True, track_running_stats=True)
  (fc1): Linear(in_features=41472, out_features=512, bias=True)
  (fc_bn1): BatchNorm1d(512, eps=1e-05, momentum=0.1, affine=True, track_running_stats=True)
  (pi): Linear(in_features=512, out_features=81, bias=True)
  (v): Linear(in_features=512, out_features=1, bias=True)
)
2025-01-29 02:34:38,960 tacult.pit INFO Starting round 1/1
2025-01-29 02:34:38,960 tacult.pit INFO Playing match: ._temp_run3_46_sims2 vs ._temp_run3_46_sims64
2025-01-29 02:35:55,692 __main__ INFO Loading UtacGame...
2025-01-29 02:35:55,694 tacult.base.utils WARNING CUDA requested but not available! Using CPU instead.
2025-01-29 02:35:57,597 tacult.base.nn_wrapper INFO Network _UtacNNet initialized on device cpu
2025-01-29 02:35:57,674 tacult.base.nn_wrapper INFO Loaded network from ./temp/resnet/checkpoint_1.pt
2025-01-29 02:35:57,674 tacult.base.nn_wrapper INFO Network architecture:
2025-01-29 02:35:57,675 tacult.base.nn_wrapper INFO _UtacNNet(
  (conv_in): Conv2d(4, 32, kernel_size=(3, 3), stride=(1, 1), padding=(1, 1))
  (bn_in): BatchNorm2d(32, eps=1e-05, momentum=0.1, affine=True, track_running_stats=True)
  (res1): ResidualBlock(
    (conv1): Conv2d(32, 32, kernel_size=(3, 3), stride=(1, 1), padding=(1, 1))
    (bn1): BatchNorm2d(32, eps=1e-05, momentum=0.1, affine=True, track_running_stats=True)
    (conv2): Conv2d(32, 32, kernel_size=(3, 3), stride=(1, 1), padding=(1, 1))
    (bn2): BatchNorm2d(32, eps=1e-05, momentum=0.1, affine=True, track_running_stats=True)
  )
  (res2): ResidualBlock(
    (conv1): Conv2d(32, 32, kernel_size=(3, 3), stride=(1, 1), padding=(1, 1))
    (bn1): BatchNorm2d(32, eps=1e-05, momentum=0.1, affine=True, track_running_stats=True)
    (conv2): Conv2d(32, 32, kernel_size=(3, 3), stride=(1, 1), padding=(1, 1))
    (bn2): BatchNorm2d(32, eps=1e-05, momentum=0.1, affine=True, track_running_stats=True)
  )
  (fc1): Linear(in_features=2592, out_features=256, bias=True)
  (fc_bn1): BatchNorm1d(256, eps=1e-05, momentum=0.1, affine=True, track_running_stats=True)
  (pi): Linear(in_features=256, out_features=81, bias=True)
  (v): Linear(in_features=256, out_features=1, bias=True)
)
2025-01-29 02:35:57,677 tacult.base.utils WARNING CUDA requested but not available! Using CPU instead.
2025-01-29 02:35:57,688 tacult.base.nn_wrapper INFO Network _UtacNNet initialized on device cpu
2025-01-29 02:35:57,781 tacult.base.nn_wrapper INFO Loaded network from ./temp/resnet/checkpoint_2.pt
2025-01-29 02:35:57,781 tacult.base.nn_wrapper INFO Network architecture:
2025-01-29 02:35:57,781 tacult.base.nn_wrapper INFO _UtacNNet(
  (conv_in): Conv2d(4, 32, kernel_size=(3, 3), stride=(1, 1), padding=(1, 1))
  (bn_in): BatchNorm2d(32, eps=1e-05, momentum=0.1, affine=True, track_running_stats=True)
  (res1): ResidualBlock(
    (conv1): Conv2d(32, 32, kernel_size=(3, 3), stride=(1, 1), padding=(1, 1))
    (bn1): BatchNorm2d(32, eps=1e-05, momentum=0.1, affine=True, track_running_stats=True)
    (conv2): Conv2d(32, 32, kernel_size=(3, 3), stride=(1, 1), padding=(1, 1))
    (bn2): BatchNorm2d(32, eps=1e-05, momentum=0.1, affine=True, track_running_stats=True)
  )
  (res2): ResidualBlock(
    (conv1): Conv2d(32, 32, kernel_size=(3, 3), stride=(1, 1), padding=(1, 1))
    (bn1): BatchNorm2d(32, eps=1e-05, momentum=0.1, affine=True, track_running_stats=True)
    (conv2): Conv2d(32, 32, kernel_size=(3, 3), stride=(1, 1), padding=(1, 1))
    (bn2): BatchNorm2d(32, eps=1e-05, momentum=0.1, affine=True, track_running_stats=True)
  )
  (fc1): Linear(in_features=2592, out_features=256, bias=True)
  (fc_bn1): BatchNorm1d(256, eps=1e-05, momentum=0.1, affine=True, track_running_stats=True)
  (pi): Linear(in_features=256, out_features=81, bias=True)
  (v): Linear(in_features=256, out_features=1, bias=True)
)
2025-01-29 02:35:57,784 tacult.base.utils WARNING CUDA requested but not available! Using CPU instead.
2025-01-29 02:35:57,826 tacult.base.nn_wrapper INFO Network _UtacNNet initialized on device cpu
2025-01-29 02:35:58,059 tacult.base.nn_wrapper INFO Loaded network from ./temp/resnet/checkpoint_5.pt
2025-01-29 02:35:58,059 tacult.base.nn_wrapper INFO Network architecture:
2025-01-29 02:35:58,060 tacult.base.nn_wrapper INFO _UtacNNet(
  (conv_in): Conv2d(4, 32, kernel_size=(3, 3), stride=(1, 1), padding=(1, 1))
  (bn_in): BatchNorm2d(32, eps=1e-05, momentum=0.1, affine=True, track_running_stats=True)
  (res1): ResidualBlock(
    (conv1): Conv2d(32, 32, kernel_size=(3, 3), stride=(1, 1), padding=(1, 1))
    (bn1): BatchNorm2d(32, eps=1e-05, momentum=0.1, affine=True, track_running_stats=True)
    (conv2): Conv2d(32, 32, kernel_size=(3, 3), stride=(1, 1), padding=(1, 1))
    (bn2): BatchNorm2d(32, eps=1e-05, momentum=0.1, affine=True, track_running_stats=True)
  )
  (res2): ResidualBlock(
    (conv1): Conv2d(32, 32, kernel_size=(3, 3), stride=(1, 1), padding=(1, 1))
    (bn1): BatchNorm2d(32, eps=1e-05, momentum=0.1, affine=True, track_running_stats=True)
    (conv2): Conv2d(32, 32, kernel_size=(3, 3), stride=(1, 1), padding=(1, 1))
    (bn2): BatchNorm2d(32, eps=1e-05, momentum=0.1, affine=True, track_running_stats=True)
  )
  (fc1): Linear(in_features=2592, out_features=256, bias=True)
  (fc_bn1): BatchNorm1d(256, eps=1e-05, momentum=0.1, affine=True, track_running_stats=True)
  (pi): Linear(in_features=256, out_features=81, bias=True)
  (v): Linear(in_features=256, out_features=1, bias=True)
)
2025-01-29 02:35:58,061 tacult.base.utils WARNING CUDA requested but not available! Using CPU instead.
2025-01-29 02:35:58,186 tacult.base.nn_wrapper INFO Network _UtacNNet initialized on device cpu
2025-01-29 02:35:58,507 tacult.base.nn_wrapper INFO Loaded network from ./temp/run3/checkpoint_46.pt
2025-01-29 02:35:58,507 tacult.base.nn_wrapper INFO Network architecture:
2025-01-29 02:35:58,507 tacult.base.nn_wrapper INFO _UtacNNet(
  (conv1): Conv2d(4, 256, kernel_size=(3, 3), stride=(1, 1), padding=(1, 1))
  (conv2): Conv2d(256, 256, kernel_size=(1, 1), stride=(1, 1))
  (conv3): Conv2d(256, 512, kernel_size=(3, 3), stride=(1, 1), padding=(1, 1))
  (conv4): Conv2d(512, 512, kernel_size=(1, 1), stride=(1, 1))
  (bn1): BatchNorm2d(256, eps=1e-05, momentum=0.1, affine=True, track_running_stats=True)
  (bn2): BatchNorm2d(256, eps=1e-05, momentum=0.1, affine=True, track_running_stats=True)
  (bn3): BatchNorm2d(512, eps=1e-05, momentum=0.1, affine=True, track_running_stats=True)
  (bn4): BatchNorm2d(512, eps=1e-05, momentum=0.1, affine=True, track_running_stats=True)
  (fc1): Linear(in_features=41472, out_features=512, bias=True)
  (fc_bn1): BatchNorm1d(512, eps=1e-05, momentum=0.1, affine=True, track_running_stats=True)
  (pi): Linear(in_features=512, out_features=81, bias=True)
  (v): Linear(in_features=512, out_features=1, bias=True)
)
2025-01-29 02:35:58,508 tacult.pit INFO Starting tournament with 1 rounds and 9 agents
2025-01-29 02:35:58,508 tacult.pit INFO Agents: ._temp_resnet_1_sims2
	._temp_resnet_1_sims64
	._temp_resnet_2_sims2
	._temp_resnet_2_sims64
	._temp_resnet_5_sims2
	._temp_resnet_5_sims64
	._temp_run3_46_sims2
	._temp_run3_46_sims64
	Random
2025-01-29 02:35:58,508 tacult.pit INFO Starting round 1/1
2025-01-29 02:35:58,508 tacult.pit INFO Playing match: ._temp_resnet_5_sims64 vs ._temp_run3_46_sims2
2025-01-29 02:37:55,837 __main__ INFO Loading UtacGame...
2025-01-29 02:37:55,839 tacult.base.utils WARNING CUDA requested but not available! Using CPU instead.
2025-01-29 02:37:56,778 tacult.base.nn_wrapper INFO Network _UtacNNet initialized on device cpu
2025-01-29 02:37:56,809 tacult.base.nn_wrapper INFO Loaded network from ./temp/resnet/checkpoint_1.pt
2025-01-29 02:37:56,810 tacult.base.nn_wrapper INFO Network architecture:
2025-01-29 02:37:56,810 tacult.base.nn_wrapper INFO _UtacNNet(
  (conv_in): Conv2d(4, 32, kernel_size=(3, 3), stride=(1, 1), padding=(1, 1))
  (bn_in): BatchNorm2d(32, eps=1e-05, momentum=0.1, affine=True, track_running_stats=True)
  (res1): ResidualBlock(
    (conv1): Conv2d(32, 32, kernel_size=(3, 3), stride=(1, 1), padding=(1, 1))
    (bn1): BatchNorm2d(32, eps=1e-05, momentum=0.1, affine=True, track_running_stats=True)
    (conv2): Conv2d(32, 32, kernel_size=(3, 3), stride=(1, 1), padding=(1, 1))
    (bn2): BatchNorm2d(32, eps=1e-05, momentum=0.1, affine=True, track_running_stats=True)
  )
  (res2): ResidualBlock(
    (conv1): Conv2d(32, 32, kernel_size=(3, 3), stride=(1, 1), padding=(1, 1))
    (bn1): BatchNorm2d(32, eps=1e-05, momentum=0.1, affine=True, track_running_stats=True)
    (conv2): Conv2d(32, 32, kernel_size=(3, 3), stride=(1, 1), padding=(1, 1))
    (bn2): BatchNorm2d(32, eps=1e-05, momentum=0.1, affine=True, track_running_stats=True)
  )
  (fc1): Linear(in_features=2592, out_features=256, bias=True)
  (fc_bn1): BatchNorm1d(256, eps=1e-05, momentum=0.1, affine=True, track_running_stats=True)
  (pi): Linear(in_features=256, out_features=81, bias=True)
  (v): Linear(in_features=256, out_features=1, bias=True)
)
2025-01-29 02:37:56,812 tacult.base.utils WARNING CUDA requested but not available! Using CPU instead.
2025-01-29 02:37:56,824 tacult.base.nn_wrapper INFO Network _UtacNNet initialized on device cpu
2025-01-29 02:37:56,849 tacult.base.nn_wrapper INFO Loaded network from ./temp/resnet/checkpoint_2.pt
2025-01-29 02:37:56,849 tacult.base.nn_wrapper INFO Network architecture:
2025-01-29 02:37:56,849 tacult.base.nn_wrapper INFO _UtacNNet(
  (conv_in): Conv2d(4, 32, kernel_size=(3, 3), stride=(1, 1), padding=(1, 1))
  (bn_in): BatchNorm2d(32, eps=1e-05, momentum=0.1, affine=True, track_running_stats=True)
  (res1): ResidualBlock(
    (conv1): Conv2d(32, 32, kernel_size=(3, 3), stride=(1, 1), padding=(1, 1))
    (bn1): BatchNorm2d(32, eps=1e-05, momentum=0.1, affine=True, track_running_stats=True)
    (conv2): Conv2d(32, 32, kernel_size=(3, 3), stride=(1, 1), padding=(1, 1))
    (bn2): BatchNorm2d(32, eps=1e-05, momentum=0.1, affine=True, track_running_stats=True)
  )
  (res2): ResidualBlock(
    (conv1): Conv2d(32, 32, kernel_size=(3, 3), stride=(1, 1), padding=(1, 1))
    (bn1): BatchNorm2d(32, eps=1e-05, momentum=0.1, affine=True, track_running_stats=True)
    (conv2): Conv2d(32, 32, kernel_size=(3, 3), stride=(1, 1), padding=(1, 1))
    (bn2): BatchNorm2d(32, eps=1e-05, momentum=0.1, affine=True, track_running_stats=True)
  )
  (fc1): Linear(in_features=2592, out_features=256, bias=True)
  (fc_bn1): BatchNorm1d(256, eps=1e-05, momentum=0.1, affine=True, track_running_stats=True)
  (pi): Linear(in_features=256, out_features=81, bias=True)
  (v): Linear(in_features=256, out_features=1, bias=True)
)
2025-01-29 02:37:56,850 tacult.base.utils WARNING CUDA requested but not available! Using CPU instead.
2025-01-29 02:37:56,855 tacult.base.nn_wrapper INFO Network _UtacNNet initialized on device cpu
2025-01-29 02:37:57,049 tacult.base.nn_wrapper INFO Loaded network from ./temp/resnet/checkpoint_5.pt
2025-01-29 02:37:57,049 tacult.base.nn_wrapper INFO Network architecture:
2025-01-29 02:37:57,049 tacult.base.nn_wrapper INFO _UtacNNet(
  (conv_in): Conv2d(4, 32, kernel_size=(3, 3), stride=(1, 1), padding=(1, 1))
  (bn_in): BatchNorm2d(32, eps=1e-05, momentum=0.1, affine=True, track_running_stats=True)
  (res1): ResidualBlock(
    (conv1): Conv2d(32, 32, kernel_size=(3, 3), stride=(1, 1), padding=(1, 1))
    (bn1): BatchNorm2d(32, eps=1e-05, momentum=0.1, affine=True, track_running_stats=True)
    (conv2): Conv2d(32, 32, kernel_size=(3, 3), stride=(1, 1), padding=(1, 1))
    (bn2): BatchNorm2d(32, eps=1e-05, momentum=0.1, affine=True, track_running_stats=True)
  )
  (res2): ResidualBlock(
    (conv1): Conv2d(32, 32, kernel_size=(3, 3), stride=(1, 1), padding=(1, 1))
    (bn1): BatchNorm2d(32, eps=1e-05, momentum=0.1, affine=True, track_running_stats=True)
    (conv2): Conv2d(32, 32, kernel_size=(3, 3), stride=(1, 1), padding=(1, 1))
    (bn2): BatchNorm2d(32, eps=1e-05, momentum=0.1, affine=True, track_running_stats=True)
  )
  (fc1): Linear(in_features=2592, out_features=256, bias=True)
  (fc_bn1): BatchNorm1d(256, eps=1e-05, momentum=0.1, affine=True, track_running_stats=True)
  (pi): Linear(in_features=256, out_features=81, bias=True)
  (v): Linear(in_features=256, out_features=1, bias=True)
)
2025-01-29 02:37:57,051 tacult.base.utils WARNING CUDA requested but not available! Using CPU instead.
2025-01-29 02:37:57,173 tacult.base.nn_wrapper INFO Network _UtacNNet initialized on device cpu
2025-01-29 02:37:57,358 tacult.base.nn_wrapper INFO Loaded network from ./temp/run3/checkpoint_46.pt
2025-01-29 02:37:57,358 tacult.base.nn_wrapper INFO Network architecture:
2025-01-29 02:37:57,358 tacult.base.nn_wrapper INFO _UtacNNet(
  (conv1): Conv2d(4, 256, kernel_size=(3, 3), stride=(1, 1), padding=(1, 1))
  (conv2): Conv2d(256, 256, kernel_size=(1, 1), stride=(1, 1))
  (conv3): Conv2d(256, 512, kernel_size=(3, 3), stride=(1, 1), padding=(1, 1))
  (conv4): Conv2d(512, 512, kernel_size=(1, 1), stride=(1, 1))
  (bn1): BatchNorm2d(256, eps=1e-05, momentum=0.1, affine=True, track_running_stats=True)
  (bn2): BatchNorm2d(256, eps=1e-05, momentum=0.1, affine=True, track_running_stats=True)
  (bn3): BatchNorm2d(512, eps=1e-05, momentum=0.1, affine=True, track_running_stats=True)
  (bn4): BatchNorm2d(512, eps=1e-05, momentum=0.1, affine=True, track_running_stats=True)
  (fc1): Linear(in_features=41472, out_features=512, bias=True)
  (fc_bn1): BatchNorm1d(512, eps=1e-05, momentum=0.1, affine=True, track_running_stats=True)
  (pi): Linear(in_features=512, out_features=81, bias=True)
  (v): Linear(in_features=512, out_features=1, bias=True)
)
2025-01-29 02:37:57,358 tacult.pit INFO Starting tournament with 1 rounds and 9 agents
2025-01-29 02:37:57,358 tacult.pit INFO Agents: .-temp-resnet_1_sims2
	.-temp-resnet_1_sims32
	.-temp-resnet_2_sims2
	.-temp-resnet_2_sims32
	.-temp-resnet_5_sims2
	.-temp-resnet_5_sims32
	.-temp-run3_46_sims2
	.-temp-run3_46_sims32
	Random
2025-01-29 02:37:57,358 tacult.pit INFO Starting round 1/1
…
2025-01-29 02:39:29,643 tacult.pit INFO Playing match: --temp-resnet_1_sims32 vs --temp-resnet_5_sims32
2025-01-29 02:40:29,878 __main__ INFO Loading UtacGame...
2025-01-29 02:40:29,880 tacult.base.utils WARNING CUDA requested but not available! Using CPU instead.
2025-01-29 02:40:30,833 tacult.base.nn_wrapper INFO Network _UtacNNet initialized on device cpu
2025-01-29 02:40:30,877 tacult.base.nn_wrapper INFO Loaded network from ./temp/resnet/checkpoint_1.pt
2025-01-29 02:40:30,878 tacult.base.nn_wrapper INFO Network architecture:
2025-01-29 02:40:30,878 tacult.base.nn_wrapper INFO _UtacNNet(
  (conv_in): Conv2d(4, 32, kernel_size=(3, 3), stride=(1, 1), padding=(1, 1))
  (bn_in): BatchNorm2d(32, eps=1e-05, momentum=0.1, affine=True, track_running_stats=True)
  (res1): ResidualBlock(
    (conv1): Conv2d(32, 32, kernel_size=(3, 3), stride=(1, 1), padding=(1, 1))
    (bn1): BatchNorm2d(32, eps=1e-05, momentum=0.1, affine=True, track_running_stats=True)
    (conv2): Conv2d(32, 32, kernel_size=(3, 3), stride=(1, 1), padding=(1, 1))
    (bn2): BatchNorm2d(32, eps=1e-05, momentum=0.1, affine=True, track_running_stats=True)
  )
  (res2): ResidualBlock(
    (conv1): Conv2d(32, 32, kernel_size=(3, 3), stride=(1, 1), padding=(1, 1))
    (bn1): BatchNorm2d(32, eps=1e-05, momentum=0.1, affine=True, track_running_stats=True)
    (conv2): Conv2d(32, 32, kernel_size=(3, 3), stride=(1, 1), padding=(1, 1))
    (bn2): BatchNorm2d(32, eps=1e-05, momentum=0.1, affine=True, track_running_stats=True)
  )
  (fc1): Linear(in_features=2592, out_features=256, bias=True)
  (fc_bn1): BatchNorm1d(256, eps=1e-05, momentum=0.1, affine=True, track_running_stats=True)
  (pi): Linear(in_features=256, out_features=81, bias=True)
  (v): Linear(in_features=256, out_features=1, bias=True)
)
2025-01-29 02:40:30,880 tacult.base.utils WARNING CUDA requested but not available! Using CPU instead.
2025-01-29 02:40:30,891 tacult.base.nn_wrapper INFO Network _UtacNNet initialized on device cpu
2025-01-29 02:40:30,923 tacult.base.nn_wrapper INFO Loaded network from ./temp/resnet/checkpoint_2.pt
2025-01-29 02:40:30,924 tacult.base.nn_wrapper INFO Network architecture:
2025-01-29 02:40:30,924 tacult.base.nn_wrapper INFO _UtacNNet(
  (conv_in): Conv2d(4, 32, kernel_size=(3, 3), stride=(1, 1), padding=(1, 1))
  (bn_in): BatchNorm2d(32, eps=1e-05, momentum=0.1, affine=True, track_running_stats=True)
  (res1): ResidualBlock(
    (conv1): Conv2d(32, 32, kernel_size=(3, 3), stride=(1, 1), padding=(1, 1))
    (bn1): BatchNorm2d(32, eps=1e-05, momentum=0.1, affine=True, track_running_stats=True)
    (conv2): Conv2d(32, 32, kernel_size=(3, 3), stride=(1, 1), padding=(1, 1))
    (bn2): BatchNorm2d(32, eps=1e-05, momentum=0.1, affine=True, track_running_stats=True)
  )
  (res2): ResidualBlock(
    (conv1): Conv2d(32, 32, kernel_size=(3, 3), stride=(1, 1), padding=(1, 1))
    (bn1): BatchNorm2d(32, eps=1e-05, momentum=0.1, affine=True, track_running_stats=True)
    (conv2): Conv2d(32, 32, kernel_size=(3, 3), stride=(1, 1), padding=(1, 1))
    (bn2): BatchNorm2d(32, eps=1e-05, momentum=0.1, affine=True, track_running_stats=True)
  )
  (fc1): Linear(in_features=2592, out_features=256, bias=True)
  (fc_bn1): BatchNorm1d(256, eps=1e-05, momentum=0.1, affine=True, track_running_stats=True)
  (pi): Linear(in_features=256, out_features=81, bias=True)
  (v): Linear(in_features=256, out_features=1, bias=True)
)
2025-01-29 02:40:30,925 tacult.base.utils WARNING CUDA requested but not available! Using CPU instead.
2025-01-29 02:40:30,936 tacult.base.nn_wrapper INFO Network _UtacNNet initialized on device cpu
2025-01-29 02:40:31,131 tacult.base.nn_wrapper INFO Loaded network from ./temp/resnet/checkpoint_5.pt
2025-01-29 02:40:31,131 tacult.base.nn_wrapper INFO Network architecture:
2025-01-29 02:40:31,131 tacult.base.nn_wrapper INFO _UtacNNet(
  (conv_in): Conv2d(4, 32, kernel_size=(3, 3), stride=(1, 1), padding=(1, 1))
  (bn_in): BatchNorm2d(32, eps=1e-05, momentum=0.1, affine=True, track_running_stats=True)
  (res1): ResidualBlock(
    (conv1): Conv2d(32, 32, kernel_size=(3, 3), stride=(1, 1), padding=(1, 1))
    (bn1): BatchNorm2d(32, eps=1e-05, momentum=0.1, affine=True, track_running_stats=True)
    (conv2): Conv2d(32, 32, kernel_size=(3, 3), stride=(1, 1), padding=(1, 1))
    (bn2): BatchNorm2d(32, eps=1e-05, momentum=0.1, affine=True, track_running_stats=True)
  )
  (res2): ResidualBlock(
    (conv1): Conv2d(32, 32, kernel_size=(3, 3), stride=(1, 1), padding=(1, 1))
    (bn1): BatchNorm2d(32, eps=1e-05, momentum=0.1, affine=True, track_running_stats=True)
    (conv2): Conv2d(32, 32, kernel_size=(3, 3), stride=(1, 1), padding=(1, 1))
    (bn2): BatchNorm2d(32, eps=1e-05, momentum=0.1, affine=True, track_running_stats=True)
  )
  (fc1): Linear(in_features=2592, out_features=256, bias=True)
  (fc_bn1): BatchNorm1d(256, eps=1e-05, momentum=0.1, affine=True, track_running_stats=True)
  (pi): Linear(in_features=256, out_features=81, bias=True)
  (v): Linear(in_features=256, out_features=1, bias=True)
)
2025-01-29 02:40:47,427 __main__ INFO Loading UtacGame...
2025-01-29 02:40:47,430 tacult.base.utils WARNING CUDA requested but not available! Using CPU instead.
2025-01-29 02:40:48,814 tacult.base.nn_wrapper INFO Network _UtacNNet initialized on device cpu
2025-01-29 02:40:48,896 tacult.base.nn_wrapper INFO Loaded network from ./temp/resnet/checkpoint_1.pt
2025-01-29 02:40:48,896 tacult.base.nn_wrapper INFO Network architecture:
2025-01-29 02:40:48,896 tacult.base.nn_wrapper INFO _UtacNNet(
  (conv_in): Conv2d(4, 32, kernel_size=(3, 3), stride=(1, 1), padding=(1, 1))
  (bn_in): BatchNorm2d(32, eps=1e-05, momentum=0.1, affine=True, track_running_stats=True)
  (res1): ResidualBlock(
    (conv1): Conv2d(32, 32, kernel_size=(3, 3), stride=(1, 1), padding=(1, 1))
    (bn1): BatchNorm2d(32, eps=1e-05, momentum=0.1, affine=True, track_running_stats=True)
    (conv2): Conv2d(32, 32, kernel_size=(3, 3), stride=(1, 1), padding=(1, 1))
    (bn2): BatchNorm2d(32, eps=1e-05, momentum=0.1, affine=True, track_running_stats=True)
  )
  (res2): ResidualBlock(
    (conv1): Conv2d(32, 32, kernel_size=(3, 3), stride=(1, 1), padding=(1, 1))
    (bn1): BatchNorm2d(32, eps=1e-05, momentum=0.1, affine=True, track_running_stats=True)
    (conv2): Conv2d(32, 32, kernel_size=(3, 3), stride=(1, 1), padding=(1, 1))
    (bn2): BatchNorm2d(32, eps=1e-05, momentum=0.1, affine=True, track_running_stats=True)
  )
  (fc1): Linear(in_features=2592, out_features=256, bias=True)
  (fc_bn1): BatchNorm1d(256, eps=1e-05, momentum=0.1, affine=True, track_running_stats=True)
  (pi): Linear(in_features=256, out_features=81, bias=True)
  (v): Linear(in_features=256, out_features=1, bias=True)
)
2025-01-29 02:40:48,897 tacult.base.utils WARNING CUDA requested but not available! Using CPU instead.
2025-01-29 02:40:48,903 tacult.base.nn_wrapper INFO Network _UtacNNet initialized on device cpu
2025-01-29 02:40:48,969 tacult.base.nn_wrapper INFO Loaded network from ./temp/resnet/checkpoint_2.pt
2025-01-29 02:40:48,969 tacult.base.nn_wrapper INFO Network architecture:
2025-01-29 02:40:48,971 tacult.base.nn_wrapper INFO _UtacNNet(
  (conv_in): Conv2d(4, 32, kernel_size=(3, 3), stride=(1, 1), padding=(1, 1))
  (bn_in): BatchNorm2d(32, eps=1e-05, momentum=0.1, affine=True, track_running_stats=True)
  (res1): ResidualBlock(
    (conv1): Conv2d(32, 32, kernel_size=(3, 3), stride=(1, 1), padding=(1, 1))
    (bn1): BatchNorm2d(32, eps=1e-05, momentum=0.1, affine=True, track_running_stats=True)
    (conv2): Conv2d(32, 32, kernel_size=(3, 3), stride=(1, 1), padding=(1, 1))
    (bn2): BatchNorm2d(32, eps=1e-05, momentum=0.1, affine=True, track_running_stats=True)
  )
  (res2): ResidualBlock(
    (conv1): Conv2d(32, 32, kernel_size=(3, 3), stride=(1, 1), padding=(1, 1))
    (bn1): BatchNorm2d(32, eps=1e-05, momentum=0.1, affine=True, track_running_stats=True)
    (conv2): Conv2d(32, 32, kernel_size=(3, 3), stride=(1, 1), padding=(1, 1))
    (bn2): BatchNorm2d(32, eps=1e-05, momentum=0.1, affine=True, track_running_stats=True)
  )
  (fc1): Linear(in_features=2592, out_features=256, bias=True)
  (fc_bn1): BatchNorm1d(256, eps=1e-05, momentum=0.1, affine=True, track_running_stats=True)
  (pi): Linear(in_features=256, out_features=81, bias=True)
  (v): Linear(in_features=256, out_features=1, bias=True)
)
2025-01-29 02:40:48,973 tacult.base.utils WARNING CUDA requested but not available! Using CPU instead.
2025-01-29 02:40:48,979 tacult.base.nn_wrapper INFO Network _UtacNNet initialized on device cpu
2025-01-29 02:40:49,221 tacult.base.nn_wrapper INFO Loaded network from ./temp/resnet/checkpoint_5.pt
2025-01-29 02:40:49,222 tacult.base.nn_wrapper INFO Network architecture:
2025-01-29 02:40:49,222 tacult.base.nn_wrapper INFO _UtacNNet(
  (conv_in): Conv2d(4, 32, kernel_size=(3, 3), stride=(1, 1), padding=(1, 1))
  (bn_in): BatchNorm2d(32, eps=1e-05, momentum=0.1, affine=True, track_running_stats=True)
  (res1): ResidualBlock(
    (conv1): Conv2d(32, 32, kernel_size=(3, 3), stride=(1, 1), padding=(1, 1))
    (bn1): BatchNorm2d(32, eps=1e-05, momentum=0.1, affine=True, track_running_stats=True)
    (conv2): Conv2d(32, 32, kernel_size=(3, 3), stride=(1, 1), padding=(1, 1))
    (bn2): BatchNorm2d(32, eps=1e-05, momentum=0.1, affine=True, track_running_stats=True)
  )
  (res2): ResidualBlock(
    (conv1): Conv2d(32, 32, kernel_size=(3, 3), stride=(1, 1), padding=(1, 1))
    (bn1): BatchNorm2d(32, eps=1e-05, momentum=0.1, affine=True, track_running_stats=True)
    (conv2): Conv2d(32, 32, kernel_size=(3, 3), stride=(1, 1), padding=(1, 1))
    (bn2): BatchNorm2d(32, eps=1e-05, momentum=0.1, affine=True, track_running_stats=True)
  )
  (fc1): Linear(in_features=2592, out_features=256, bias=True)
  (fc_bn1): BatchNorm1d(256, eps=1e-05, momentum=0.1, affine=True, track_running_stats=True)
  (pi): Linear(in_features=256, out_features=81, bias=True)
  (v): Linear(in_features=256, out_features=1, bias=True)
)
2025-01-29 02:40:49,223 tacult.base.utils WARNING CUDA requested but not available! Using CPU instead.
2025-01-29 02:40:49,361 tacult.base.nn_wrapper INFO Network _UtacNNet initialized on device cpu
2025-01-29 02:40:49,670 tacult.base.nn_wrapper INFO Loaded network from ./temp/run3/checkpoint_46.pt
2025-01-29 02:40:49,671 tacult.base.nn_wrapper INFO Network architecture:
2025-01-29 02:40:49,671 tacult.base.nn_wrapper INFO _UtacNNet(
  (conv1): Conv2d(4, 256, kernel_size=(3, 3), stride=(1, 1), padding=(1, 1))
  (conv2): Conv2d(256, 256, kernel_size=(1, 1), stride=(1, 1))
  (conv3): Conv2d(256, 512, kernel_size=(3, 3), stride=(1, 1), padding=(1, 1))
  (conv4): Conv2d(512, 512, kernel_size=(1, 1), stride=(1, 1))
  (bn1): BatchNorm2d(256, eps=1e-05, momentum=0.1, affine=True, track_running_stats=True)
  (bn2): BatchNorm2d(256, eps=1e-05, momentum=0.1, affine=True, track_running_stats=True)
  (bn3): BatchNorm2d(512, eps=1e-05, momentum=0.1, affine=True, track_running_stats=True)
  (bn4): BatchNorm2d(512, eps=1e-05, momentum=0.1, affine=True, track_running_stats=True)
  (fc1): Linear(in_features=41472, out_features=512, bias=True)
  (fc_bn1): BatchNorm1d(512, eps=1e-05, momentum=0.1, affine=True, track_running_stats=True)
  (pi): Linear(in_features=512, out_features=81, bias=True)
  (v): Linear(in_features=512, out_features=1, bias=True)
)
2025-01-29 02:40:49,672 tacult.pit INFO Starting tournament with 1 rounds and 9 agents
2025-01-29 02:40:49,672 tacult.pit INFO Agents: temp_resnet_1_sims2
	temp_resnet_1_sims32
	temp_resnet_2_sims2
	temp_resnet_2_sims32
	temp_resnet_5_sims2
	temp_resnet_5_sims32
	temp_run3_46_sims2
	temp_run3_46_sims32
	Random
2025-01-29 02:40:49,672 tacult.pit INFO Starting round 1/1
…
2025-01-29 02:41:45,808 tacult.pit INFO Starting round 1/1
2025-01-29 02:41:45,809 tacult.pit INFO Playing match: temp_run3_46_sims32 vs Random
2025-01-29 02:41:50,258 __main__ INFO Loading UtacGame...
2025-01-29 02:41:50,260 tacult.base.utils WARNING CUDA requested but not available! Using CPU instead.
2025-01-29 02:41:51,168 tacult.base.nn_wrapper INFO Network _UtacNNet initialized on device cpu
2025-01-29 02:41:51,188 tacult.base.nn_wrapper INFO Loaded network from ./temp/resnet/checkpoint_1.pt
2025-01-29 02:41:51,188 tacult.base.nn_wrapper INFO Network architecture:
2025-01-29 02:41:51,188 tacult.base.nn_wrapper INFO _UtacNNet(
  (conv_in): Conv2d(4, 32, kernel_size=(3, 3), stride=(1, 1), padding=(1, 1))
  (bn_in): BatchNorm2d(32, eps=1e-05, momentum=0.1, affine=True, track_running_stats=True)
  (res1): ResidualBlock(
    (conv1): Conv2d(32, 32, kernel_size=(3, 3), stride=(1, 1), padding=(1, 1))
    (bn1): BatchNorm2d(32, eps=1e-05, momentum=0.1, affine=True, track_running_stats=True)
    (conv2): Conv2d(32, 32, kernel_size=(3, 3), stride=(1, 1), padding=(1, 1))
    (bn2): BatchNorm2d(32, eps=1e-05, momentum=0.1, affine=True, track_running_stats=True)
  )
  (res2): ResidualBlock(
    (conv1): Conv2d(32, 32, kernel_size=(3, 3), stride=(1, 1), padding=(1, 1))
    (bn1): BatchNorm2d(32, eps=1e-05, momentum=0.1, affine=True, track_running_stats=True)
    (conv2): Conv2d(32, 32, kernel_size=(3, 3), stride=(1, 1), padding=(1, 1))
    (bn2): BatchNorm2d(32, eps=1e-05, momentum=0.1, affine=True, track_running_stats=True)
  )
  (fc1): Linear(in_features=2592, out_features=256, bias=True)
  (fc_bn1): BatchNorm1d(256, eps=1e-05, momentum=0.1, affine=True, track_running_stats=True)
  (pi): Linear(in_features=256, out_features=81, bias=True)
  (v): Linear(in_features=256, out_features=1, bias=True)
)
2025-01-29 02:41:51,189 tacult.base.utils WARNING CUDA requested but not available! Using CPU instead.
2025-01-29 02:41:51,201 tacult.base.nn_wrapper INFO Network _UtacNNet initialized on device cpu
2025-01-29 02:41:51,216 tacult.base.nn_wrapper INFO Loaded network from ./temp/resnet/checkpoint_2.pt
2025-01-29 02:41:51,216 tacult.base.nn_wrapper INFO Network architecture:
2025-01-29 02:41:51,216 tacult.base.nn_wrapper INFO _UtacNNet(
  (conv_in): Conv2d(4, 32, kernel_size=(3, 3), stride=(1, 1), padding=(1, 1))
  (bn_in): BatchNorm2d(32, eps=1e-05, momentum=0.1, affine=True, track_running_stats=True)
  (res1): ResidualBlock(
    (conv1): Conv2d(32, 32, kernel_size=(3, 3), stride=(1, 1), padding=(1, 1))
    (bn1): BatchNorm2d(32, eps=1e-05, momentum=0.1, affine=True, track_running_stats=True)
    (conv2): Conv2d(32, 32, kernel_size=(3, 3), stride=(1, 1), padding=(1, 1))
    (bn2): BatchNorm2d(32, eps=1e-05, momentum=0.1, affine=True, track_running_stats=True)
  )
  (res2): ResidualBlock(
    (conv1): Conv2d(32, 32, kernel_size=(3, 3), stride=(1, 1), padding=(1, 1))
    (bn1): BatchNorm2d(32, eps=1e-05, momentum=0.1, affine=True, track_running_stats=True)
    (conv2): Conv2d(32, 32, kernel_size=(3, 3), stride=(1, 1), padding=(1, 1))
    (bn2): BatchNorm2d(32, eps=1e-05, momentum=0.1, affine=True, track_running_stats=True)
  )
  (fc1): Linear(in_features=2592, out_features=256, bias=True)
  (fc_bn1): BatchNorm1d(256, eps=1e-05, momentum=0.1, affine=True, track_running_stats=True)
  (pi): Linear(in_features=256, out_features=81, bias=True)
  (v): Linear(in_features=256, out_features=1, bias=True)
)
2025-01-29 02:41:51,218 tacult.base.utils WARNING CUDA requested but not available! Using CPU instead.
2025-01-29 02:41:51,224 tacult.base.nn_wrapper INFO Network _UtacNNet initialized on device cpu
2025-01-29 02:41:51,430 tacult.base.nn_wrapper INFO Loaded network from ./temp/resnet/checkpoint_5.pt
2025-01-29 02:41:51,430 tacult.base.nn_wrapper INFO Network architecture:
2025-01-29 02:41:51,430 tacult.base.nn_wrapper INFO _UtacNNet(
  (conv_in): Conv2d(4, 32, kernel_size=(3, 3), stride=(1, 1), padding=(1, 1))
  (bn_in): BatchNorm2d(32, eps=1e-05, momentum=0.1, affine=True, track_running_stats=True)
  (res1): ResidualBlock(
    (conv1): Conv2d(32, 32, kernel_size=(3, 3), stride=(1, 1), padding=(1, 1))
    (bn1): BatchNorm2d(32, eps=1e-05, momentum=0.1, affine=True, track_running_stats=True)
    (conv2): Conv2d(32, 32, kernel_size=(3, 3), stride=(1, 1), padding=(1, 1))
    (bn2): BatchNorm2d(32, eps=1e-05, momentum=0.1, affine=True, track_running_stats=True)
  )
  (res2): ResidualBlock(
    (conv1): Conv2d(32, 32, kernel_size=(3, 3), stride=(1, 1), padding=(1, 1))
    (bn1): BatchNorm2d(32, eps=1e-05, momentum=0.1, affine=True, track_running_stats=True)
    (conv2): Conv2d(32, 32, kernel_size=(3, 3), stride=(1, 1), padding=(1, 1))
    (bn2): BatchNorm2d(32, eps=1e-05, momentum=0.1, affine=True, track_running_stats=True)
  )
  (fc1): Linear(in_features=2592, out_features=256, bias=True)
  (fc_bn1): BatchNorm1d(256, eps=1e-05, momentum=0.1, affine=True, track_running_stats=True)
  (pi): Linear(in_features=256, out_features=81, bias=True)
  (v): Linear(in_features=256, out_features=1, bias=True)
)
2025-01-29 02:41:51,432 tacult.base.utils WARNING CUDA requested but not available! Using CPU instead.
2025-01-29 02:41:51,438 tacult.base.nn_wrapper INFO Network _UtacNNet initialized on device cpu
2025-01-29 02:41:51,450 tacult.base.nn_wrapper INFO Loaded network from ./temp/resnet/checkpoint_6.pt
2025-01-29 02:41:51,450 tacult.base.nn_wrapper INFO Network architecture:
2025-01-29 02:41:51,450 tacult.base.nn_wrapper INFO _UtacNNet(
  (conv_in): Conv2d(4, 32, kernel_size=(3, 3), stride=(1, 1), padding=(1, 1))
  (bn_in): BatchNorm2d(32, eps=1e-05, momentum=0.1, affine=True, track_running_stats=True)
  (res1): ResidualBlock(
    (conv1): Conv2d(32, 32, kernel_size=(3, 3), stride=(1, 1), padding=(1, 1))
    (bn1): BatchNorm2d(32, eps=1e-05, momentum=0.1, affine=True, track_running_stats=True)
    (conv2): Conv2d(32, 32, kernel_size=(3, 3), stride=(1, 1), padding=(1, 1))
    (bn2): BatchNorm2d(32, eps=1e-05, momentum=0.1, affine=True, track_running_stats=True)
  )
  (res2): ResidualBlock(
    (conv1): Conv2d(32, 32, kernel_size=(3, 3), stride=(1, 1), padding=(1, 1))
    (bn1): BatchNorm2d(32, eps=1e-05, momentum=0.1, affine=True, track_running_stats=True)
    (conv2): Conv2d(32, 32, kernel_size=(3, 3), stride=(1, 1), padding=(1, 1))
    (bn2): BatchNorm2d(32, eps=1e-05, momentum=0.1, affine=True, track_running_stats=True)
  )
  (fc1): Linear(in_features=2592, out_features=256, bias=True)
  (fc_bn1): BatchNorm1d(256, eps=1e-05, momentum=0.1, affine=True, track_running_stats=True)
  (pi): Linear(in_features=256, out_features=81, bias=True)
  (v): Linear(in_features=256, out_features=1, bias=True)
)
2025-01-29 02:41:51,455 tacult.base.utils WARNING CUDA requested but not available! Using CPU instead.
2025-01-29 02:41:51,590 tacult.base.nn_wrapper INFO Network _UtacNNet initialized on device cpu
2025-01-29 02:41:51,771 tacult.base.nn_wrapper INFO Loaded network from ./temp/run3/checkpoint_46.pt
2025-01-29 02:41:51,772 tacult.base.nn_wrapper INFO Network architecture:
2025-01-29 02:41:51,772 tacult.base.nn_wrapper INFO _UtacNNet(
  (conv1): Conv2d(4, 256, kernel_size=(3, 3), stride=(1, 1), padding=(1, 1))
  (conv2): Conv2d(256, 256, kernel_size=(1, 1), stride=(1, 1))
  (conv3): Conv2d(256, 512, kernel_size=(3, 3), stride=(1, 1), padding=(1, 1))
  (conv4): Conv2d(512, 512, kernel_size=(1, 1), stride=(1, 1))
  (bn1): BatchNorm2d(256, eps=1e-05, momentum=0.1, affine=True, track_running_stats=True)
  (bn2): BatchNorm2d(256, eps=1e-05, momentum=0.1, affine=True, track_running_stats=True)
  (bn3): BatchNorm2d(512, eps=1e-05, momentum=0.1, affine=True, track_running_stats=True)
  (bn4): BatchNorm2d(512, eps=1e-05, momentum=0.1, affine=True, track_running_stats=True)
  (fc1): Linear(in_features=41472, out_features=512, bias=True)
  (fc_bn1): BatchNorm1d(512, eps=1e-05, momentum=0.1, affine=True, track_running_stats=True)
  (pi): Linear(in_features=512, out_features=81, bias=True)
  (v): Linear(in_features=512, out_features=1, bias=True)
)
2025-01-29 02:41:51,774 tacult.pit INFO Starting tournament with 1 rounds and 11 agents
2025-01-29 02:41:51,774 tacult.pit INFO Agents: temp_resnet_1_sims2
	temp_resnet_1_sims32
	temp_resnet_2_sims2
	temp_resnet_2_sims32
	temp_resnet_5_sims2
	temp_resnet_5_sims32
	temp_resnet_6_sims2
	temp_resnet_6_sims32
	temp_run3_46_sims2
	temp_run3_46_sims32
	Random
…
2025-01-29 02:49:14,168 tacult.pit INFO Playing match: temp_resnet_iter6_sims32 vs temp_run3_iter46_sims32
2025-01-29 02:50:44,526 __main__ INFO Loading UtacGame...
2025-01-29 02:51:05,026 __main__ INFO Loading UtacGame...
2025-01-29 02:51:05,027 tacult.base.utils WARNING CUDA requested but not available! Using CPU instead.
2025-01-29 02:51:05,967 tacult.base.nn_wrapper INFO Network _UtacNNet initialized on device cpu
2025-01-29 02:51:06,012 tacult.base.nn_wrapper INFO Loaded network from ./temp/resnet/checkpoint_1.pt
2025-01-29 02:51:06,012 tacult.base.nn_wrapper INFO Network architecture:
2025-01-29 02:51:06,013 tacult.base.nn_wrapper INFO _UtacNNet(
  (conv_in): Conv2d(4, 32, kernel_size=(3, 3), stride=(1, 1), padding=(1, 1))
  (bn_in): BatchNorm2d(32, eps=1e-05, momentum=0.1, affine=True, track_running_stats=True)
  (res1): ResidualBlock(
    (conv1): Conv2d(32, 32, kernel_size=(3, 3), stride=(1, 1), padding=(1, 1))
    (bn1): BatchNorm2d(32, eps=1e-05, momentum=0.1, affine=True, track_running_stats=True)
    (conv2): Conv2d(32, 32, kernel_size=(3, 3), stride=(1, 1), padding=(1, 1))
    (bn2): BatchNorm2d(32, eps=1e-05, momentum=0.1, affine=True, track_running_stats=True)
  )
  (res2): ResidualBlock(
    (conv1): Conv2d(32, 32, kernel_size=(3, 3), stride=(1, 1), padding=(1, 1))
    (bn1): BatchNorm2d(32, eps=1e-05, momentum=0.1, affine=True, track_running_stats=True)
    (conv2): Conv2d(32, 32, kernel_size=(3, 3), stride=(1, 1), padding=(1, 1))
    (bn2): BatchNorm2d(32, eps=1e-05, momentum=0.1, affine=True, track_running_stats=True)
  )
  (fc1): Linear(in_features=2592, out_features=256, bias=True)
  (fc_bn1): BatchNorm1d(256, eps=1e-05, momentum=0.1, affine=True, track_running_stats=True)
  (pi): Linear(in_features=256, out_features=81, bias=True)
  (v): Linear(in_features=256, out_features=1, bias=True)
)
2025-01-29 02:51:06,014 tacult.base.utils WARNING CUDA requested but not available! Using CPU instead.
2025-01-29 02:51:06,022 tacult.base.nn_wrapper INFO Network _UtacNNet initialized on device cpu
2025-01-29 02:51:06,045 tacult.base.nn_wrapper INFO Loaded network from ./temp/resnet/checkpoint_2.pt
2025-01-29 02:51:06,046 tacult.base.nn_wrapper INFO Network architecture:
2025-01-29 02:51:06,046 tacult.base.nn_wrapper INFO _UtacNNet(
  (conv_in): Conv2d(4, 32, kernel_size=(3, 3), stride=(1, 1), padding=(1, 1))
  (bn_in): BatchNorm2d(32, eps=1e-05, momentum=0.1, affine=True, track_running_stats=True)
  (res1): ResidualBlock(
    (conv1): Conv2d(32, 32, kernel_size=(3, 3), stride=(1, 1), padding=(1, 1))
    (bn1): BatchNorm2d(32, eps=1e-05, momentum=0.1, affine=True, track_running_stats=True)
    (conv2): Conv2d(32, 32, kernel_size=(3, 3), stride=(1, 1), padding=(1, 1))
    (bn2): BatchNorm2d(32, eps=1e-05, momentum=0.1, affine=True, track_running_stats=True)
  )
  (res2): ResidualBlock(
    (conv1): Conv2d(32, 32, kernel_size=(3, 3), stride=(1, 1), padding=(1, 1))
    (bn1): BatchNorm2d(32, eps=1e-05, momentum=0.1, affine=True, track_running_stats=True)
    (conv2): Conv2d(32, 32, kernel_size=(3, 3), stride=(1, 1), padding=(1, 1))
    (bn2): BatchNorm2d(32, eps=1e-05, momentum=0.1, affine=True, track_running_stats=True)
  )
  (fc1): Linear(in_features=2592, out_features=256, bias=True)
  (fc_bn1): BatchNorm1d(256, eps=1e-05, momentum=0.1, affine=True, track_running_stats=True)
  (pi): Linear(in_features=256, out_features=81, bias=True)
  (v): Linear(in_features=256, out_features=1, bias=True)
)
2025-01-29 02:51:06,048 tacult.base.utils WARNING CUDA requested but not available! Using CPU instead.
2025-01-29 02:51:06,058 tacult.base.nn_wrapper INFO Network _UtacNNet initialized on device cpu
2025-01-29 02:51:06,278 tacult.base.nn_wrapper INFO Loaded network from ./temp/resnet/checkpoint_5.pt
2025-01-29 02:51:06,278 tacult.base.nn_wrapper INFO Network architecture:
2025-01-29 02:51:06,278 tacult.base.nn_wrapper INFO _UtacNNet(
  (conv_in): Conv2d(4, 32, kernel_size=(3, 3), stride=(1, 1), padding=(1, 1))
  (bn_in): BatchNorm2d(32, eps=1e-05, momentum=0.1, affine=True, track_running_stats=True)
  (res1): ResidualBlock(
    (conv1): Conv2d(32, 32, kernel_size=(3, 3), stride=(1, 1), padding=(1, 1))
    (bn1): BatchNorm2d(32, eps=1e-05, momentum=0.1, affine=True, track_running_stats=True)
    (conv2): Conv2d(32, 32, kernel_size=(3, 3), stride=(1, 1), padding=(1, 1))
    (bn2): BatchNorm2d(32, eps=1e-05, momentum=0.1, affine=True, track_running_stats=True)
  )
  (res2): ResidualBlock(
    (conv1): Conv2d(32, 32, kernel_size=(3, 3), stride=(1, 1), padding=(1, 1))
    (bn1): BatchNorm2d(32, eps=1e-05, momentum=0.1, affine=True, track_running_stats=True)
    (conv2): Conv2d(32, 32, kernel_size=(3, 3), stride=(1, 1), padding=(1, 1))
    (bn2): BatchNorm2d(32, eps=1e-05, momentum=0.1, affine=True, track_running_stats=True)
  )
  (fc1): Linear(in_features=2592, out_features=256, bias=True)
  (fc_bn1): BatchNorm1d(256, eps=1e-05, momentum=0.1, affine=True, track_running_stats=True)
  (pi): Linear(in_features=256, out_features=81, bias=True)
  (v): Linear(in_features=256, out_features=1, bias=True)
)
2025-01-29 02:51:06,279 tacult.base.utils WARNING CUDA requested but not available! Using CPU instead.
2025-01-29 02:51:06,285 tacult.base.nn_wrapper INFO Network _UtacNNet initialized on device cpu
2025-01-29 02:51:06,301 tacult.base.nn_wrapper INFO Loaded network from ./temp/resnet/checkpoint_6.pt
2025-01-29 02:51:06,302 tacult.base.nn_wrapper INFO Network architecture:
2025-01-29 02:51:06,302 tacult.base.nn_wrapper INFO _UtacNNet(
  (conv_in): Conv2d(4, 32, kernel_size=(3, 3), stride=(1, 1), padding=(1, 1))
  (bn_in): BatchNorm2d(32, eps=1e-05, momentum=0.1, affine=True, track_running_stats=True)
  (res1): ResidualBlock(
    (conv1): Conv2d(32, 32, kernel_size=(3, 3), stride=(1, 1), padding=(1, 1))
    (bn1): BatchNorm2d(32, eps=1e-05, momentum=0.1, affine=True, track_running_stats=True)
    (conv2): Conv2d(32, 32, kernel_size=(3, 3), stride=(1, 1), padding=(1, 1))
    (bn2): BatchNorm2d(32, eps=1e-05, momentum=0.1, affine=True, track_running_stats=True)
  )
  (res2): ResidualBlock(
    (conv1): Conv2d(32, 32, kernel_size=(3, 3), stride=(1, 1), padding=(1, 1))
    (bn1): BatchNorm2d(32, eps=1e-05, momentum=0.1, affine=True, track_running_stats=True)
    (conv2): Conv2d(32, 32, kernel_size=(3, 3), stride=(1, 1), padding=(1, 1))
    (bn2): BatchNorm2d(32, eps=1e-05, momentum=0.1, affine=True, track_running_stats=True)
  )
  (fc1): Linear(in_features=2592, out_features=256, bias=True)
  (fc_bn1): BatchNorm1d(256, eps=1e-05, momentum=0.1, affine=True, track_running_stats=True)
  (pi): Linear(in_features=256, out_features=81, bias=True)
  (v): Linear(in_features=256, out_features=1, bias=True)
)
2025-01-29 02:51:15,195 __main__ INFO Loading UtacGame...
2025-01-29 02:51:15,196 tacult.base.utils WARNING CUDA requested but not available! Using CPU instead.
2025-01-29 02:51:16,093 tacult.base.nn_wrapper INFO Network _UtacNNet initialized on device cpu
2025-01-29 02:51:16,127 tacult.base.nn_wrapper INFO Loaded network from ./temp/resnet/checkpoint_1.pt
2025-01-29 02:51:16,127 tacult.base.nn_wrapper INFO Network architecture:
2025-01-29 02:51:16,136 tacult.base.nn_wrapper INFO _UtacNNet(
  (conv_in): Conv2d(4, 32, kernel_size=(3, 3), stride=(1, 1), padding=(1, 1))
  (bn_in): BatchNorm2d(32, eps=1e-05, momentum=0.1, affine=True, track_running_stats=True)
  (res1): ResidualBlock(
    (conv1): Conv2d(32, 32, kernel_size=(3, 3), stride=(1, 1), padding=(1, 1))
    (bn1): BatchNorm2d(32, eps=1e-05, momentum=0.1, affine=True, track_running_stats=True)
    (conv2): Conv2d(32, 32, kernel_size=(3, 3), stride=(1, 1), padding=(1, 1))
    (bn2): BatchNorm2d(32, eps=1e-05, momentum=0.1, affine=True, track_running_stats=True)
  )
  (res2): ResidualBlock(
    (conv1): Conv2d(32, 32, kernel_size=(3, 3), stride=(1, 1), padding=(1, 1))
    (bn1): BatchNorm2d(32, eps=1e-05, momentum=0.1, affine=True, track_running_stats=True)
    (conv2): Conv2d(32, 32, kernel_size=(3, 3), stride=(1, 1), padding=(1, 1))
    (bn2): BatchNorm2d(32, eps=1e-05, momentum=0.1, affine=True, track_running_stats=True)
  )
  (fc1): Linear(in_features=2592, out_features=256, bias=True)
  (fc_bn1): BatchNorm1d(256, eps=1e-05, momentum=0.1, affine=True, track_running_stats=True)
  (pi): Linear(in_features=256, out_features=81, bias=True)
  (v): Linear(in_features=256, out_features=1, bias=True)
)
2025-01-29 02:51:16,138 tacult.base.utils WARNING CUDA requested but not available! Using CPU instead.
2025-01-29 02:51:16,150 tacult.base.nn_wrapper INFO Network _UtacNNet initialized on device cpu
2025-01-29 02:51:16,186 tacult.base.nn_wrapper INFO Loaded network from ./temp/resnet/checkpoint_2.pt
2025-01-29 02:51:16,187 tacult.base.nn_wrapper INFO Network architecture:
2025-01-29 02:51:16,187 tacult.base.nn_wrapper INFO _UtacNNet(
  (conv_in): Conv2d(4, 32, kernel_size=(3, 3), stride=(1, 1), padding=(1, 1))
  (bn_in): BatchNorm2d(32, eps=1e-05, momentum=0.1, affine=True, track_running_stats=True)
  (res1): ResidualBlock(
    (conv1): Conv2d(32, 32, kernel_size=(3, 3), stride=(1, 1), padding=(1, 1))
    (bn1): BatchNorm2d(32, eps=1e-05, momentum=0.1, affine=True, track_running_stats=True)
    (conv2): Conv2d(32, 32, kernel_size=(3, 3), stride=(1, 1), padding=(1, 1))
    (bn2): BatchNorm2d(32, eps=1e-05, momentum=0.1, affine=True, track_running_stats=True)
  )
  (res2): ResidualBlock(
    (conv1): Conv2d(32, 32, kernel_size=(3, 3), stride=(1, 1), padding=(1, 1))
    (bn1): BatchNorm2d(32, eps=1e-05, momentum=0.1, affine=True, track_running_stats=True)
    (conv2): Conv2d(32, 32, kernel_size=(3, 3), stride=(1, 1), padding=(1, 1))
    (bn2): BatchNorm2d(32, eps=1e-05, momentum=0.1, affine=True, track_running_stats=True)
  )
  (fc1): Linear(in_features=2592, out_features=256, bias=True)
  (fc_bn1): BatchNorm1d(256, eps=1e-05, momentum=0.1, affine=True, track_running_stats=True)
  (pi): Linear(in_features=256, out_features=81, bias=True)
  (v): Linear(in_features=256, out_features=1, bias=True)
)
2025-01-29 02:51:16,189 tacult.base.utils WARNING CUDA requested but not available! Using CPU instead.
2025-01-29 02:51:16,203 tacult.base.nn_wrapper INFO Network _UtacNNet initialized on device cpu
2025-01-29 02:51:16,426 tacult.base.nn_wrapper INFO Loaded network from ./temp/resnet/checkpoint_5.pt
2025-01-29 02:51:16,426 tacult.base.nn_wrapper INFO Network architecture:
2025-01-29 02:51:16,426 tacult.base.nn_wrapper INFO _UtacNNet(
  (conv_in): Conv2d(4, 32, kernel_size=(3, 3), stride=(1, 1), padding=(1, 1))
  (bn_in): BatchNorm2d(32, eps=1e-05, momentum=0.1, affine=True, track_running_stats=True)
  (res1): ResidualBlock(
    (conv1): Conv2d(32, 32, kernel_size=(3, 3), stride=(1, 1), padding=(1, 1))
    (bn1): BatchNorm2d(32, eps=1e-05, momentum=0.1, affine=True, track_running_stats=True)
    (conv2): Conv2d(32, 32, kernel_size=(3, 3), stride=(1, 1), padding=(1, 1))
    (bn2): BatchNorm2d(32, eps=1e-05, momentum=0.1, affine=True, track_running_stats=True)
  )
  (res2): ResidualBlock(
    (conv1): Conv2d(32, 32, kernel_size=(3, 3), stride=(1, 1), padding=(1, 1))
    (bn1): BatchNorm2d(32, eps=1e-05, momentum=0.1, affine=True, track_running_stats=True)
    (conv2): Conv2d(32, 32, kernel_size=(3, 3), stride=(1, 1), padding=(1, 1))
    (bn2): BatchNorm2d(32, eps=1e-05, momentum=0.1, affine=True, track_running_stats=True)
  )
  (fc1): Linear(in_features=2592, out_features=256, bias=True)
  (fc_bn1): BatchNorm1d(256, eps=1e-05, momentum=0.1, affine=True, track_running_stats=True)
  (pi): Linear(in_features=256, out_features=81, bias=True)
  (v): Linear(in_features=256, out_features=1, bias=True)
)
2025-01-29 02:51:16,428 tacult.base.utils WARNING CUDA requested but not available! Using CPU instead.
2025-01-29 02:51:16,435 tacult.base.nn_wrapper INFO Network _UtacNNet initialized on device cpu
2025-01-29 02:51:16,455 tacult.base.nn_wrapper INFO Loaded network from ./temp/resnet/checkpoint_6.pt
2025-01-29 02:51:16,455 tacult.base.nn_wrapper INFO Network architecture:
2025-01-29 02:51:16,455 tacult.base.nn_wrapper INFO _UtacNNet(
  (conv_in): Conv2d(4, 32, kernel_size=(3, 3), stride=(1, 1), padding=(1, 1))
  (bn_in): BatchNorm2d(32, eps=1e-05, momentum=0.1, affine=True, track_running_stats=True)
  (res1): ResidualBlock(
    (conv1): Conv2d(32, 32, kernel_size=(3, 3), stride=(1, 1), padding=(1, 1))
    (bn1): BatchNorm2d(32, eps=1e-05, momentum=0.1, affine=True, track_running_stats=True)
    (conv2): Conv2d(32, 32, kernel_size=(3, 3), stride=(1, 1), padding=(1, 1))
    (bn2): BatchNorm2d(32, eps=1e-05, momentum=0.1, affine=True, track_running_stats=True)
  )
  (res2): ResidualBlock(
    (conv1): Conv2d(32, 32, kernel_size=(3, 3), stride=(1, 1), padding=(1, 1))
    (bn1): BatchNorm2d(32, eps=1e-05, momentum=0.1, affine=True, track_running_stats=True)
    (conv2): Conv2d(32, 32, kernel_size=(3, 3), stride=(1, 1), padding=(1, 1))
    (bn2): BatchNorm2d(32, eps=1e-05, momentum=0.1, affine=True, track_running_stats=True)
  )
  (fc1): Linear(in_features=2592, out_features=256, bias=True)
  (fc_bn1): BatchNorm1d(256, eps=1e-05, momentum=0.1, affine=True, track_running_stats=True)
  (pi): Linear(in_features=256, out_features=81, bias=True)
  (v): Linear(in_features=256, out_features=1, bias=True)
)
2025-01-29 02:51:34,816 __main__ INFO Loading UtacGame...
2025-01-29 02:51:34,818 tacult.base.utils WARNING CUDA requested but not available! Using CPU instead.
2025-01-29 02:51:35,648 tacult.base.nn_wrapper INFO Network _UtacNNet initialized on device cpu
2025-01-29 02:51:35,688 tacult.base.nn_wrapper INFO Loaded network from ./temp/resnet/checkpoint_1.pt
2025-01-29 02:51:35,689 tacult.base.nn_wrapper INFO Network architecture:
2025-01-29 02:51:35,689 tacult.base.nn_wrapper INFO _UtacNNet(
  (conv_in): Conv2d(4, 32, kernel_size=(3, 3), stride=(1, 1), padding=(1, 1))
  (bn_in): BatchNorm2d(32, eps=1e-05, momentum=0.1, affine=True, track_running_stats=True)
  (res1): ResidualBlock(
    (conv1): Conv2d(32, 32, kernel_size=(3, 3), stride=(1, 1), padding=(1, 1))
    (bn1): BatchNorm2d(32, eps=1e-05, momentum=0.1, affine=True, track_running_stats=True)
    (conv2): Conv2d(32, 32, kernel_size=(3, 3), stride=(1, 1), padding=(1, 1))
    (bn2): BatchNorm2d(32, eps=1e-05, momentum=0.1, affine=True, track_running_stats=True)
  )
  (res2): ResidualBlock(
    (conv1): Conv2d(32, 32, kernel_size=(3, 3), stride=(1, 1), padding=(1, 1))
    (bn1): BatchNorm2d(32, eps=1e-05, momentum=0.1, affine=True, track_running_stats=True)
    (conv2): Conv2d(32, 32, kernel_size=(3, 3), stride=(1, 1), padding=(1, 1))
    (bn2): BatchNorm2d(32, eps=1e-05, momentum=0.1, affine=True, track_running_stats=True)
  )
  (fc1): Linear(in_features=2592, out_features=256, bias=True)
  (fc_bn1): BatchNorm1d(256, eps=1e-05, momentum=0.1, affine=True, track_running_stats=True)
  (pi): Linear(in_features=256, out_features=81, bias=True)
  (v): Linear(in_features=256, out_features=1, bias=True)
)
2025-01-29 02:51:35,691 tacult.base.utils WARNING CUDA requested but not available! Using CPU instead.
2025-01-29 02:51:35,700 tacult.base.nn_wrapper INFO Network _UtacNNet initialized on device cpu
2025-01-29 02:51:35,719 tacult.base.nn_wrapper INFO Loaded network from ./temp/resnet/checkpoint_2.pt
2025-01-29 02:51:35,719 tacult.base.nn_wrapper INFO Network architecture:
2025-01-29 02:51:35,719 tacult.base.nn_wrapper INFO _UtacNNet(
  (conv_in): Conv2d(4, 32, kernel_size=(3, 3), stride=(1, 1), padding=(1, 1))
  (bn_in): BatchNorm2d(32, eps=1e-05, momentum=0.1, affine=True, track_running_stats=True)
  (res1): ResidualBlock(
    (conv1): Conv2d(32, 32, kernel_size=(3, 3), stride=(1, 1), padding=(1, 1))
    (bn1): BatchNorm2d(32, eps=1e-05, momentum=0.1, affine=True, track_running_stats=True)
    (conv2): Conv2d(32, 32, kernel_size=(3, 3), stride=(1, 1), padding=(1, 1))
    (bn2): BatchNorm2d(32, eps=1e-05, momentum=0.1, affine=True, track_running_stats=True)
  )
  (res2): ResidualBlock(
    (conv1): Conv2d(32, 32, kernel_size=(3, 3), stride=(1, 1), padding=(1, 1))
    (bn1): BatchNorm2d(32, eps=1e-05, momentum=0.1, affine=True, track_running_stats=True)
    (conv2): Conv2d(32, 32, kernel_size=(3, 3), stride=(1, 1), padding=(1, 1))
    (bn2): BatchNorm2d(32, eps=1e-05, momentum=0.1, affine=True, track_running_stats=True)
  )
  (fc1): Linear(in_features=2592, out_features=256, bias=True)
  (fc_bn1): BatchNorm1d(256, eps=1e-05, momentum=0.1, affine=True, track_running_stats=True)
  (pi): Linear(in_features=256, out_features=81, bias=True)
  (v): Linear(in_features=256, out_features=1, bias=True)
)
2025-01-29 02:51:35,721 tacult.base.utils WARNING CUDA requested but not available! Using CPU instead.
2025-01-29 02:51:35,735 tacult.base.nn_wrapper INFO Network _UtacNNet initialized on device cpu
2025-01-29 02:51:35,946 tacult.base.nn_wrapper INFO Loaded network from ./temp/resnet/checkpoint_5.pt
2025-01-29 02:51:35,946 tacult.base.nn_wrapper INFO Network architecture:
2025-01-29 02:51:35,946 tacult.base.nn_wrapper INFO _UtacNNet(
  (conv_in): Conv2d(4, 32, kernel_size=(3, 3), stride=(1, 1), padding=(1, 1))
  (bn_in): BatchNorm2d(32, eps=1e-05, momentum=0.1, affine=True, track_running_stats=True)
  (res1): ResidualBlock(
    (conv1): Conv2d(32, 32, kernel_size=(3, 3), stride=(1, 1), padding=(1, 1))
    (bn1): BatchNorm2d(32, eps=1e-05, momentum=0.1, affine=True, track_running_stats=True)
    (conv2): Conv2d(32, 32, kernel_size=(3, 3), stride=(1, 1), padding=(1, 1))
    (bn2): BatchNorm2d(32, eps=1e-05, momentum=0.1, affine=True, track_running_stats=True)
  )
  (res2): ResidualBlock(
    (conv1): Conv2d(32, 32, kernel_size=(3, 3), stride=(1, 1), padding=(1, 1))
    (bn1): BatchNorm2d(32, eps=1e-05, momentum=0.1, affine=True, track_running_stats=True)
    (conv2): Conv2d(32, 32, kernel_size=(3, 3), stride=(1, 1), padding=(1, 1))
    (bn2): BatchNorm2d(32, eps=1e-05, momentum=0.1, affine=True, track_running_stats=True)
  )
  (fc1): Linear(in_features=2592, out_features=256, bias=True)
  (fc_bn1): BatchNorm1d(256, eps=1e-05, momentum=0.1, affine=True, track_running_stats=True)
  (pi): Linear(in_features=256, out_features=81, bias=True)
  (v): Linear(in_features=256, out_features=1, bias=True)
)
2025-01-29 02:51:35,948 tacult.base.utils WARNING CUDA requested but not available! Using CPU instead.
2025-01-29 02:51:35,954 tacult.base.nn_wrapper INFO Network _UtacNNet initialized on device cpu
2025-01-29 02:51:35,982 tacult.base.nn_wrapper INFO Loaded network from ./temp/resnet/checkpoint_6.pt
2025-01-29 02:51:35,982 tacult.base.nn_wrapper INFO Network architecture:
2025-01-29 02:51:35,982 tacult.base.nn_wrapper INFO _UtacNNet(
  (conv_in): Conv2d(4, 32, kernel_size=(3, 3), stride=(1, 1), padding=(1, 1))
  (bn_in): BatchNorm2d(32, eps=1e-05, momentum=0.1, affine=True, track_running_stats=True)
  (res1): ResidualBlock(
    (conv1): Conv2d(32, 32, kernel_size=(3, 3), stride=(1, 1), padding=(1, 1))
    (bn1): BatchNorm2d(32, eps=1e-05, momentum=0.1, affine=True, track_running_stats=True)
    (conv2): Conv2d(32, 32, kernel_size=(3, 3), stride=(1, 1), padding=(1, 1))
    (bn2): BatchNorm2d(32, eps=1e-05, momentum=0.1, affine=True, track_running_stats=True)
  )
  (res2): ResidualBlock(
    (conv1): Conv2d(32, 32, kernel_size=(3, 3), stride=(1, 1), padding=(1, 1))
    (bn1): BatchNorm2d(32, eps=1e-05, momentum=0.1, affine=True, track_running_stats=True)
    (conv2): Conv2d(32, 32, kernel_size=(3, 3), stride=(1, 1), padding=(1, 1))
    (bn2): BatchNorm2d(32, eps=1e-05, momentum=0.1, affine=True, track_running_stats=True)
  )
  (fc1): Linear(in_features=2592, out_features=256, bias=True)
  (fc_bn1): BatchNorm1d(256, eps=1e-05, momentum=0.1, affine=True, track_running_stats=True)
  (pi): Linear(in_features=256, out_features=81, bias=True)
  (v): Linear(in_features=256, out_features=1, bias=True)
)
2025-01-29 02:51:35,990 tacult.base.utils WARNING CUDA requested but not available! Using CPU instead.
2025-01-29 02:51:36,111 tacult.base.nn_wrapper INFO Network _UtacNNet initialized on device cpu
2025-01-29 02:51:36,293 tacult.base.nn_wrapper INFO Loaded network from ./temp/run3/checkpoint_46.pt
2025-01-29 02:51:36,293 tacult.base.nn_wrapper INFO Network architecture:
2025-01-29 02:51:36,293 tacult.base.nn_wrapper INFO _UtacNNet(
  (conv1): Conv2d(4, 256, kernel_size=(3, 3), stride=(1, 1), padding=(1, 1))
  (conv2): Conv2d(256, 256, kernel_size=(1, 1), stride=(1, 1))
  (conv3): Conv2d(256, 512, kernel_size=(3, 3), stride=(1, 1), padding=(1, 1))
  (conv4): Conv2d(512, 512, kernel_size=(1, 1), stride=(1, 1))
  (bn1): BatchNorm2d(256, eps=1e-05, momentum=0.1, affine=True, track_running_stats=True)
  (bn2): BatchNorm2d(256, eps=1e-05, momentum=0.1, affine=True, track_running_stats=True)
  (bn3): BatchNorm2d(512, eps=1e-05, momentum=0.1, affine=True, track_running_stats=True)
  (bn4): BatchNorm2d(512, eps=1e-05, momentum=0.1, affine=True, track_running_stats=True)
  (fc1): Linear(in_features=41472, out_features=512, bias=True)
  (fc_bn1): BatchNorm1d(512, eps=1e-05, momentum=0.1, affine=True, track_running_stats=True)
  (pi): Linear(in_features=512, out_features=81, bias=True)
  (v): Linear(in_features=512, out_features=1, bias=True)
)
2025-01-29 02:51:36,295 tacult.pit INFO Starting tournament with 1000 rounds and 1 agents
2025-01-29 02:51:36,295 tacult.pit INFO Agents: Random
2025-01-29 02:51:36,295 tacult.pit INFO Starting round 1/1000
2025-01-29 02:53:02,711 __main__ INFO Loading UtacGame...
2025-01-29 02:53:02,713 tacult.base.utils WARNING CUDA requested but not available! Using CPU instead.
2025-01-29 02:53:03,477 tacult.base.nn_wrapper INFO Network _UtacNNet initialized on device cpu
2025-01-29 02:53:03,510 tacult.base.nn_wrapper INFO Loaded network from ./temp/resnet/checkpoint_1.pt
2025-01-29 02:53:03,511 tacult.base.nn_wrapper INFO Network architecture:
2025-01-29 02:53:03,511 tacult.base.nn_wrapper INFO _UtacNNet(
  (conv_in): Conv2d(4, 32, kernel_size=(3, 3), stride=(1, 1), padding=(1, 1))
  (bn_in): BatchNorm2d(32, eps=1e-05, momentum=0.1, affine=True, track_running_stats=True)
  (res1): ResidualBlock(
    (conv1): Conv2d(32, 32, kernel_size=(3, 3), stride=(1, 1), padding=(1, 1))
    (bn1): BatchNorm2d(32, eps=1e-05, momentum=0.1, affine=True, track_running_stats=True)
    (conv2): Conv2d(32, 32, kernel_size=(3, 3), stride=(1, 1), padding=(1, 1))
    (bn2): BatchNorm2d(32, eps=1e-05, momentum=0.1, affine=True, track_running_stats=True)
  )
  (res2): ResidualBlock(
    (conv1): Conv2d(32, 32, kernel_size=(3, 3), stride=(1, 1), padding=(1, 1))
    (bn1): BatchNorm2d(32, eps=1e-05, momentum=0.1, affine=True, track_running_stats=True)
    (conv2): Conv2d(32, 32, kernel_size=(3, 3), stride=(1, 1), padding=(1, 1))
    (bn2): BatchNorm2d(32, eps=1e-05, momentum=0.1, affine=True, track_running_stats=True)
  )
  (fc1): Linear(in_features=2592, out_features=256, bias=True)
  (fc_bn1): BatchNorm1d(256, eps=1e-05, momentum=0.1, affine=True, track_running_stats=True)
  (pi): Linear(in_features=256, out_features=81, bias=True)
  (v): Linear(in_features=256, out_features=1, bias=True)
)
2025-01-29 02:53:03,514 tacult.base.utils WARNING CUDA requested but not available! Using CPU instead.
2025-01-29 02:53:03,526 tacult.base.nn_wrapper INFO Network _UtacNNet initialized on device cpu
2025-01-29 02:53:03,558 tacult.base.nn_wrapper INFO Loaded network from ./temp/resnet/checkpoint_2.pt
2025-01-29 02:53:03,558 tacult.base.nn_wrapper INFO Network architecture:
2025-01-29 02:53:03,559 tacult.base.nn_wrapper INFO _UtacNNet(
  (conv_in): Conv2d(4, 32, kernel_size=(3, 3), stride=(1, 1), padding=(1, 1))
  (bn_in): BatchNorm2d(32, eps=1e-05, momentum=0.1, affine=True, track_running_stats=True)
  (res1): ResidualBlock(
    (conv1): Conv2d(32, 32, kernel_size=(3, 3), stride=(1, 1), padding=(1, 1))
    (bn1): BatchNorm2d(32, eps=1e-05, momentum=0.1, affine=True, track_running_stats=True)
    (conv2): Conv2d(32, 32, kernel_size=(3, 3), stride=(1, 1), padding=(1, 1))
    (bn2): BatchNorm2d(32, eps=1e-05, momentum=0.1, affine=True, track_running_stats=True)
  )
  (res2): ResidualBlock(
    (conv1): Conv2d(32, 32, kernel_size=(3, 3), stride=(1, 1), padding=(1, 1))
    (bn1): BatchNorm2d(32, eps=1e-05, momentum=0.1, affine=True, track_running_stats=True)
    (conv2): Conv2d(32, 32, kernel_size=(3, 3), stride=(1, 1), padding=(1, 1))
    (bn2): BatchNorm2d(32, eps=1e-05, momentum=0.1, affine=True, track_running_stats=True)
  )
  (fc1): Linear(in_features=2592, out_features=256, bias=True)
  (fc_bn1): BatchNorm1d(256, eps=1e-05, momentum=0.1, affine=True, track_running_stats=True)
  (pi): Linear(in_features=256, out_features=81, bias=True)
  (v): Linear(in_features=256, out_features=1, bias=True)
)
2025-01-29 02:53:03,560 tacult.base.utils WARNING CUDA requested but not available! Using CPU instead.
2025-01-29 02:53:03,573 tacult.base.nn_wrapper INFO Network _UtacNNet initialized on device cpu
2025-01-29 02:53:03,768 tacult.base.nn_wrapper INFO Loaded network from ./temp/resnet/checkpoint_5.pt
2025-01-29 02:53:03,769 tacult.base.nn_wrapper INFO Network architecture:
2025-01-29 02:53:03,769 tacult.base.nn_wrapper INFO _UtacNNet(
  (conv_in): Conv2d(4, 32, kernel_size=(3, 3), stride=(1, 1), padding=(1, 1))
  (bn_in): BatchNorm2d(32, eps=1e-05, momentum=0.1, affine=True, track_running_stats=True)
  (res1): ResidualBlock(
    (conv1): Conv2d(32, 32, kernel_size=(3, 3), stride=(1, 1), padding=(1, 1))
    (bn1): BatchNorm2d(32, eps=1e-05, momentum=0.1, affine=True, track_running_stats=True)
    (conv2): Conv2d(32, 32, kernel_size=(3, 3), stride=(1, 1), padding=(1, 1))
    (bn2): BatchNorm2d(32, eps=1e-05, momentum=0.1, affine=True, track_running_stats=True)
  )
  (res2): ResidualBlock(
    (conv1): Conv2d(32, 32, kernel_size=(3, 3), stride=(1, 1), padding=(1, 1))
    (bn1): BatchNorm2d(32, eps=1e-05, momentum=0.1, affine=True, track_running_stats=True)
    (conv2): Conv2d(32, 32, kernel_size=(3, 3), stride=(1, 1), padding=(1, 1))
    (bn2): BatchNorm2d(32, eps=1e-05, momentum=0.1, affine=True, track_running_stats=True)
  )
  (fc1): Linear(in_features=2592, out_features=256, bias=True)
  (fc_bn1): BatchNorm1d(256, eps=1e-05, momentum=0.1, affine=True, track_running_stats=True)
  (pi): Linear(in_features=256, out_features=81, bias=True)
  (v): Linear(in_features=256, out_features=1, bias=True)
)
2025-01-29 02:53:03,770 tacult.base.utils WARNING CUDA requested but not available! Using CPU instead.
2025-01-29 02:53:03,775 tacult.base.nn_wrapper INFO Network _UtacNNet initialized on device cpu
2025-01-29 02:53:03,807 tacult.base.nn_wrapper INFO Loaded network from ./temp/resnet/checkpoint_6.pt
2025-01-29 02:53:03,808 tacult.base.nn_wrapper INFO Network architecture:
2025-01-29 02:53:03,808 tacult.base.nn_wrapper INFO _UtacNNet(
  (conv_in): Conv2d(4, 32, kernel_size=(3, 3), stride=(1, 1), padding=(1, 1))
  (bn_in): BatchNorm2d(32, eps=1e-05, momentum=0.1, affine=True, track_running_stats=True)
  (res1): ResidualBlock(
    (conv1): Conv2d(32, 32, kernel_size=(3, 3), stride=(1, 1), padding=(1, 1))
    (bn1): BatchNorm2d(32, eps=1e-05, momentum=0.1, affine=True, track_running_stats=True)
    (conv2): Conv2d(32, 32, kernel_size=(3, 3), stride=(1, 1), padding=(1, 1))
    (bn2): BatchNorm2d(32, eps=1e-05, momentum=0.1, affine=True, track_running_stats=True)
  )
  (res2): ResidualBlock(
    (conv1): Conv2d(32, 32, kernel_size=(3, 3), stride=(1, 1), padding=(1, 1))
    (bn1): BatchNorm2d(32, eps=1e-05, momentum=0.1, affine=True, track_running_stats=True)
    (conv2): Conv2d(32, 32, kernel_size=(3, 3), stride=(1, 1), padding=(1, 1))
    (bn2): BatchNorm2d(32, eps=1e-05, momentum=0.1, affine=True, track_running_stats=True)
  )
  (fc1): Linear(in_features=2592, out_features=256, bias=True)
  (fc_bn1): BatchNorm1d(256, eps=1e-05, momentum=0.1, affine=True, track_running_stats=True)
  (pi): Linear(in_features=256, out_features=81, bias=True)
  (v): Linear(in_features=256, out_features=1, bias=True)
)
2025-01-29 02:53:03,813 tacult.base.utils WARNING CUDA requested but not available! Using CPU instead.
2025-01-29 02:53:03,970 tacult.base.nn_wrapper INFO Network _UtacNNet initialized on device cpu
2025-01-29 02:53:04,186 tacult.base.nn_wrapper INFO Loaded network from ./temp/run3/checkpoint_46.pt
2025-01-29 02:53:04,187 tacult.base.nn_wrapper INFO Network architecture:
2025-01-29 02:53:04,187 tacult.base.nn_wrapper INFO _UtacNNet(
  (conv1): Conv2d(4, 256, kernel_size=(3, 3), stride=(1, 1), padding=(1, 1))
  (conv2): Conv2d(256, 256, kernel_size=(1, 1), stride=(1, 1))
  (conv3): Conv2d(256, 512, kernel_size=(3, 3), stride=(1, 1), padding=(1, 1))
  (conv4): Conv2d(512, 512, kernel_size=(1, 1), stride=(1, 1))
  (bn1): BatchNorm2d(256, eps=1e-05, momentum=0.1, affine=True, track_running_stats=True)
  (bn2): BatchNorm2d(256, eps=1e-05, momentum=0.1, affine=True, track_running_stats=True)
  (bn3): BatchNorm2d(512, eps=1e-05, momentum=0.1, affine=True, track_running_stats=True)
  (bn4): BatchNorm2d(512, eps=1e-05, momentum=0.1, affine=True, track_running_stats=True)
  (fc1): Linear(in_features=41472, out_features=512, bias=True)
  (fc_bn1): BatchNorm1d(512, eps=1e-05, momentum=0.1, affine=True, track_running_stats=True)
  (pi): Linear(in_features=512, out_features=81, bias=True)
  (v): Linear(in_features=512, out_features=1, bias=True)
)
2025-01-29 02:53:04,189 tacult.pit INFO Starting tournament with 1000 rounds and 1 agents
2025-01-29 02:53:04,193 tacult.pit INFO Agents: Random
2025-01-29 02:53:04,193 tacult.pit INFO Starting round 1/1000
2025-01-29 02:53:35,565 __main__ INFO Loading UtacGame...
2025-01-29 02:53:35,566 tacult.base.utils WARNING CUDA requested but not available! Using CPU instead.
2025-01-29 02:53:36,333 tacult.base.nn_wrapper INFO Network _UtacNNet initialized on device cpu
2025-01-29 02:53:36,368 tacult.base.nn_wrapper INFO Loaded network from ./temp/resnet/checkpoint_1.pt
2025-01-29 02:53:36,369 tacult.base.nn_wrapper INFO Network architecture:
2025-01-29 02:53:36,369 tacult.base.nn_wrapper INFO _UtacNNet(
  (conv_in): Conv2d(4, 32, kernel_size=(3, 3), stride=(1, 1), padding=(1, 1))
  (bn_in): BatchNorm2d(32, eps=1e-05, momentum=0.1, affine=True, track_running_stats=True)
  (res1): ResidualBlock(
    (conv1): Conv2d(32, 32, kernel_size=(3, 3), stride=(1, 1), padding=(1, 1))
    (bn1): BatchNorm2d(32, eps=1e-05, momentum=0.1, affine=True, track_running_stats=True)
    (conv2): Conv2d(32, 32, kernel_size=(3, 3), stride=(1, 1), padding=(1, 1))
    (bn2): BatchNorm2d(32, eps=1e-05, momentum=0.1, affine=True, track_running_stats=True)
  )
  (res2): ResidualBlock(
    (conv1): Conv2d(32, 32, kernel_size=(3, 3), stride=(1, 1), padding=(1, 1))
    (bn1): BatchNorm2d(32, eps=1e-05, momentum=0.1, affine=True, track_running_stats=True)
    (conv2): Conv2d(32, 32, kernel_size=(3, 3), stride=(1, 1), padding=(1, 1))
    (bn2): BatchNorm2d(32, eps=1e-05, momentum=0.1, affine=True, track_running_stats=True)
  )
  (fc1): Linear(in_features=2592, out_features=256, bias=True)
  (fc_bn1): BatchNorm1d(256, eps=1e-05, momentum=0.1, affine=True, track_running_stats=True)
  (pi): Linear(in_features=256, out_features=81, bias=True)
  (v): Linear(in_features=256, out_features=1, bias=True)
)
2025-01-29 02:53:36,370 tacult.base.utils WARNING CUDA requested but not available! Using CPU instead.
2025-01-29 02:53:36,377 tacult.base.nn_wrapper INFO Network _UtacNNet initialized on device cpu
2025-01-29 02:53:36,402 tacult.base.nn_wrapper INFO Loaded network from ./temp/resnet/checkpoint_2.pt
2025-01-29 02:53:36,402 tacult.base.nn_wrapper INFO Network architecture:
2025-01-29 02:53:36,403 tacult.base.nn_wrapper INFO _UtacNNet(
  (conv_in): Conv2d(4, 32, kernel_size=(3, 3), stride=(1, 1), padding=(1, 1))
  (bn_in): BatchNorm2d(32, eps=1e-05, momentum=0.1, affine=True, track_running_stats=True)
  (res1): ResidualBlock(
    (conv1): Conv2d(32, 32, kernel_size=(3, 3), stride=(1, 1), padding=(1, 1))
    (bn1): BatchNorm2d(32, eps=1e-05, momentum=0.1, affine=True, track_running_stats=True)
    (conv2): Conv2d(32, 32, kernel_size=(3, 3), stride=(1, 1), padding=(1, 1))
    (bn2): BatchNorm2d(32, eps=1e-05, momentum=0.1, affine=True, track_running_stats=True)
  )
  (res2): ResidualBlock(
    (conv1): Conv2d(32, 32, kernel_size=(3, 3), stride=(1, 1), padding=(1, 1))
    (bn1): BatchNorm2d(32, eps=1e-05, momentum=0.1, affine=True, track_running_stats=True)
    (conv2): Conv2d(32, 32, kernel_size=(3, 3), stride=(1, 1), padding=(1, 1))
    (bn2): BatchNorm2d(32, eps=1e-05, momentum=0.1, affine=True, track_running_stats=True)
  )
  (fc1): Linear(in_features=2592, out_features=256, bias=True)
  (fc_bn1): BatchNorm1d(256, eps=1e-05, momentum=0.1, affine=True, track_running_stats=True)
  (pi): Linear(in_features=256, out_features=81, bias=True)
  (v): Linear(in_features=256, out_features=1, bias=True)
)
2025-01-29 02:53:36,405 tacult.base.utils WARNING CUDA requested but not available! Using CPU instead.
2025-01-29 02:53:36,418 tacult.base.nn_wrapper INFO Network _UtacNNet initialized on device cpu
2025-01-29 02:53:36,618 tacult.base.nn_wrapper INFO Loaded network from ./temp/resnet/checkpoint_5.pt
2025-01-29 02:53:36,621 tacult.base.nn_wrapper INFO Network architecture:
2025-01-29 02:53:36,621 tacult.base.nn_wrapper INFO _UtacNNet(
  (conv_in): Conv2d(4, 32, kernel_size=(3, 3), stride=(1, 1), padding=(1, 1))
  (bn_in): BatchNorm2d(32, eps=1e-05, momentum=0.1, affine=True, track_running_stats=True)
  (res1): ResidualBlock(
    (conv1): Conv2d(32, 32, kernel_size=(3, 3), stride=(1, 1), padding=(1, 1))
    (bn1): BatchNorm2d(32, eps=1e-05, momentum=0.1, affine=True, track_running_stats=True)
    (conv2): Conv2d(32, 32, kernel_size=(3, 3), stride=(1, 1), padding=(1, 1))
    (bn2): BatchNorm2d(32, eps=1e-05, momentum=0.1, affine=True, track_running_stats=True)
  )
  (res2): ResidualBlock(
    (conv1): Conv2d(32, 32, kernel_size=(3, 3), stride=(1, 1), padding=(1, 1))
    (bn1): BatchNorm2d(32, eps=1e-05, momentum=0.1, affine=True, track_running_stats=True)
    (conv2): Conv2d(32, 32, kernel_size=(3, 3), stride=(1, 1), padding=(1, 1))
    (bn2): BatchNorm2d(32, eps=1e-05, momentum=0.1, affine=True, track_running_stats=True)
  )
  (fc1): Linear(in_features=2592, out_features=256, bias=True)
  (fc_bn1): BatchNorm1d(256, eps=1e-05, momentum=0.1, affine=True, track_running_stats=True)
  (pi): Linear(in_features=256, out_features=81, bias=True)
  (v): Linear(in_features=256, out_features=1, bias=True)
)
2025-01-29 02:53:36,622 tacult.base.utils WARNING CUDA requested but not available! Using CPU instead.
2025-01-29 02:53:36,628 tacult.base.nn_wrapper INFO Network _UtacNNet initialized on device cpu
2025-01-29 02:53:36,660 tacult.base.nn_wrapper INFO Loaded network from ./temp/resnet/checkpoint_6.pt
2025-01-29 02:53:36,663 tacult.base.nn_wrapper INFO Network architecture:
2025-01-29 02:53:36,663 tacult.base.nn_wrapper INFO _UtacNNet(
  (conv_in): Conv2d(4, 32, kernel_size=(3, 3), stride=(1, 1), padding=(1, 1))
  (bn_in): BatchNorm2d(32, eps=1e-05, momentum=0.1, affine=True, track_running_stats=True)
  (res1): ResidualBlock(
    (conv1): Conv2d(32, 32, kernel_size=(3, 3), stride=(1, 1), padding=(1, 1))
    (bn1): BatchNorm2d(32, eps=1e-05, momentum=0.1, affine=True, track_running_stats=True)
    (conv2): Conv2d(32, 32, kernel_size=(3, 3), stride=(1, 1), padding=(1, 1))
    (bn2): BatchNorm2d(32, eps=1e-05, momentum=0.1, affine=True, track_running_stats=True)
  )
  (res2): ResidualBlock(
    (conv1): Conv2d(32, 32, kernel_size=(3, 3), stride=(1, 1), padding=(1, 1))
    (bn1): BatchNorm2d(32, eps=1e-05, momentum=0.1, affine=True, track_running_stats=True)
    (conv2): Conv2d(32, 32, kernel_size=(3, 3), stride=(1, 1), padding=(1, 1))
    (bn2): BatchNorm2d(32, eps=1e-05, momentum=0.1, affine=True, track_running_stats=True)
  )
  (fc1): Linear(in_features=2592, out_features=256, bias=True)
  (fc_bn1): BatchNorm1d(256, eps=1e-05, momentum=0.1, affine=True, track_running_stats=True)
  (pi): Linear(in_features=256, out_features=81, bias=True)
  (v): Linear(in_features=256, out_features=1, bias=True)
)
2025-01-29 02:53:36,671 tacult.base.utils WARNING CUDA requested but not available! Using CPU instead.
2025-01-29 02:53:36,789 tacult.base.nn_wrapper INFO Network _UtacNNet initialized on device cpu
2025-01-29 02:53:36,940 tacult.base.nn_wrapper INFO Loaded network from ./temp/run3/checkpoint_46.pt
2025-01-29 02:53:36,941 tacult.base.nn_wrapper INFO Network architecture:
2025-01-29 02:53:36,941 tacult.base.nn_wrapper INFO _UtacNNet(
  (conv1): Conv2d(4, 256, kernel_size=(3, 3), stride=(1, 1), padding=(1, 1))
  (conv2): Conv2d(256, 256, kernel_size=(1, 1), stride=(1, 1))
  (conv3): Conv2d(256, 512, kernel_size=(3, 3), stride=(1, 1), padding=(1, 1))
  (conv4): Conv2d(512, 512, kernel_size=(1, 1), stride=(1, 1))
  (bn1): BatchNorm2d(256, eps=1e-05, momentum=0.1, affine=True, track_running_stats=True)
  (bn2): BatchNorm2d(256, eps=1e-05, momentum=0.1, affine=True, track_running_stats=True)
  (bn3): BatchNorm2d(512, eps=1e-05, momentum=0.1, affine=True, track_running_stats=True)
  (bn4): BatchNorm2d(512, eps=1e-05, momentum=0.1, affine=True, track_running_stats=True)
  (fc1): Linear(in_features=41472, out_features=512, bias=True)
  (fc_bn1): BatchNorm1d(512, eps=1e-05, momentum=0.1, affine=True, track_running_stats=True)
  (pi): Linear(in_features=512, out_features=81, bias=True)
  (v): Linear(in_features=512, out_features=1, bias=True)
)
2025-01-29 02:53:36,943 tacult.pit INFO Starting tournament with 1000 rounds and 1 agents
2025-01-29 02:53:36,943 tacult.pit INFO Agents: Random
2025-01-29 02:53:36,943 tacult.pit INFO Starting round 1/1000
2025-01-29 02:54:55,325 __main__ INFO Loading UtacGame...
2025-01-29 02:54:55,326 tacult.base.utils WARNING CUDA requested but not available! Using CPU instead.
2025-01-29 02:54:56,129 tacult.base.nn_wrapper INFO Network _UtacNNet initialized on device cpu
2025-01-29 02:54:56,165 tacult.base.nn_wrapper INFO Loaded network from ./temp/resnet/checkpoint_1.pt
2025-01-29 02:54:56,165 tacult.base.nn_wrapper INFO Network architecture:
2025-01-29 02:54:56,165 tacult.base.nn_wrapper INFO _UtacNNet(
  (conv_in): Conv2d(4, 32, kernel_size=(3, 3), stride=(1, 1), padding=(1, 1))
  (bn_in): BatchNorm2d(32, eps=1e-05, momentum=0.1, affine=True, track_running_stats=True)
  (res1): ResidualBlock(
    (conv1): Conv2d(32, 32, kernel_size=(3, 3), stride=(1, 1), padding=(1, 1))
    (bn1): BatchNorm2d(32, eps=1e-05, momentum=0.1, affine=True, track_running_stats=True)
    (conv2): Conv2d(32, 32, kernel_size=(3, 3), stride=(1, 1), padding=(1, 1))
    (bn2): BatchNorm2d(32, eps=1e-05, momentum=0.1, affine=True, track_running_stats=True)
  )
  (res2): ResidualBlock(
    (conv1): Conv2d(32, 32, kernel_size=(3, 3), stride=(1, 1), padding=(1, 1))
    (bn1): BatchNorm2d(32, eps=1e-05, momentum=0.1, affine=True, track_running_stats=True)
    (conv2): Conv2d(32, 32, kernel_size=(3, 3), stride=(1, 1), padding=(1, 1))
    (bn2): BatchNorm2d(32, eps=1e-05, momentum=0.1, affine=True, track_running_stats=True)
  )
  (fc1): Linear(in_features=2592, out_features=256, bias=True)
  (fc_bn1): BatchNorm1d(256, eps=1e-05, momentum=0.1, affine=True, track_running_stats=True)
  (pi): Linear(in_features=256, out_features=81, bias=True)
  (v): Linear(in_features=256, out_features=1, bias=True)
)
2025-01-29 02:54:56,166 tacult.base.utils WARNING CUDA requested but not available! Using CPU instead.
2025-01-29 02:54:56,172 tacult.base.nn_wrapper INFO Network _UtacNNet initialized on device cpu
2025-01-29 02:54:56,188 tacult.base.nn_wrapper INFO Loaded network from ./temp/resnet/checkpoint_2.pt
2025-01-29 02:54:56,191 tacult.base.nn_wrapper INFO Network architecture:
2025-01-29 02:54:56,192 tacult.base.nn_wrapper INFO _UtacNNet(
  (conv_in): Conv2d(4, 32, kernel_size=(3, 3), stride=(1, 1), padding=(1, 1))
  (bn_in): BatchNorm2d(32, eps=1e-05, momentum=0.1, affine=True, track_running_stats=True)
  (res1): ResidualBlock(
    (conv1): Conv2d(32, 32, kernel_size=(3, 3), stride=(1, 1), padding=(1, 1))
    (bn1): BatchNorm2d(32, eps=1e-05, momentum=0.1, affine=True, track_running_stats=True)
    (conv2): Conv2d(32, 32, kernel_size=(3, 3), stride=(1, 1), padding=(1, 1))
    (bn2): BatchNorm2d(32, eps=1e-05, momentum=0.1, affine=True, track_running_stats=True)
  )
  (res2): ResidualBlock(
    (conv1): Conv2d(32, 32, kernel_size=(3, 3), stride=(1, 1), padding=(1, 1))
    (bn1): BatchNorm2d(32, eps=1e-05, momentum=0.1, affine=True, track_running_stats=True)
    (conv2): Conv2d(32, 32, kernel_size=(3, 3), stride=(1, 1), padding=(1, 1))
    (bn2): BatchNorm2d(32, eps=1e-05, momentum=0.1, affine=True, track_running_stats=True)
  )
  (fc1): Linear(in_features=2592, out_features=256, bias=True)
  (fc_bn1): BatchNorm1d(256, eps=1e-05, momentum=0.1, affine=True, track_running_stats=True)
  (pi): Linear(in_features=256, out_features=81, bias=True)
  (v): Linear(in_features=256, out_features=1, bias=True)
)
2025-01-29 02:54:56,193 tacult.base.utils WARNING CUDA requested but not available! Using CPU instead.
2025-01-29 02:54:56,207 tacult.base.nn_wrapper INFO Network _UtacNNet initialized on device cpu
2025-01-29 02:54:56,400 tacult.base.nn_wrapper INFO Loaded network from ./temp/resnet/checkpoint_5.pt
2025-01-29 02:54:56,402 tacult.base.nn_wrapper INFO Network architecture:
2025-01-29 02:54:56,412 tacult.base.nn_wrapper INFO _UtacNNet(
  (conv_in): Conv2d(4, 32, kernel_size=(3, 3), stride=(1, 1), padding=(1, 1))
  (bn_in): BatchNorm2d(32, eps=1e-05, momentum=0.1, affine=True, track_running_stats=True)
  (res1): ResidualBlock(
    (conv1): Conv2d(32, 32, kernel_size=(3, 3), stride=(1, 1), padding=(1, 1))
    (bn1): BatchNorm2d(32, eps=1e-05, momentum=0.1, affine=True, track_running_stats=True)
    (conv2): Conv2d(32, 32, kernel_size=(3, 3), stride=(1, 1), padding=(1, 1))
    (bn2): BatchNorm2d(32, eps=1e-05, momentum=0.1, affine=True, track_running_stats=True)
  )
  (res2): ResidualBlock(
    (conv1): Conv2d(32, 32, kernel_size=(3, 3), stride=(1, 1), padding=(1, 1))
    (bn1): BatchNorm2d(32, eps=1e-05, momentum=0.1, affine=True, track_running_stats=True)
    (conv2): Conv2d(32, 32, kernel_size=(3, 3), stride=(1, 1), padding=(1, 1))
    (bn2): BatchNorm2d(32, eps=1e-05, momentum=0.1, affine=True, track_running_stats=True)
  )
  (fc1): Linear(in_features=2592, out_features=256, bias=True)
  (fc_bn1): BatchNorm1d(256, eps=1e-05, momentum=0.1, affine=True, track_running_stats=True)
  (pi): Linear(in_features=256, out_features=81, bias=True)
  (v): Linear(in_features=256, out_features=1, bias=True)
)
2025-01-29 02:54:56,417 tacult.base.utils WARNING CUDA requested but not available! Using CPU instead.
2025-01-29 02:54:56,428 tacult.base.nn_wrapper INFO Network _UtacNNet initialized on device cpu
2025-01-29 02:54:56,444 tacult.base.nn_wrapper INFO Loaded network from ./temp/resnet/checkpoint_6.pt
2025-01-29 02:54:56,444 tacult.base.nn_wrapper INFO Network architecture:
2025-01-29 02:54:56,445 tacult.base.nn_wrapper INFO _UtacNNet(
  (conv_in): Conv2d(4, 32, kernel_size=(3, 3), stride=(1, 1), padding=(1, 1))
  (bn_in): BatchNorm2d(32, eps=1e-05, momentum=0.1, affine=True, track_running_stats=True)
  (res1): ResidualBlock(
    (conv1): Conv2d(32, 32, kernel_size=(3, 3), stride=(1, 1), padding=(1, 1))
    (bn1): BatchNorm2d(32, eps=1e-05, momentum=0.1, affine=True, track_running_stats=True)
    (conv2): Conv2d(32, 32, kernel_size=(3, 3), stride=(1, 1), padding=(1, 1))
    (bn2): BatchNorm2d(32, eps=1e-05, momentum=0.1, affine=True, track_running_stats=True)
  )
  (res2): ResidualBlock(
    (conv1): Conv2d(32, 32, kernel_size=(3, 3), stride=(1, 1), padding=(1, 1))
    (bn1): BatchNorm2d(32, eps=1e-05, momentum=0.1, affine=True, track_running_stats=True)
    (conv2): Conv2d(32, 32, kernel_size=(3, 3), stride=(1, 1), padding=(1, 1))
    (bn2): BatchNorm2d(32, eps=1e-05, momentum=0.1, affine=True, track_running_stats=True)
  )
  (fc1): Linear(in_features=2592, out_features=256, bias=True)
  (fc_bn1): BatchNorm1d(256, eps=1e-05, momentum=0.1, affine=True, track_running_stats=True)
  (pi): Linear(in_features=256, out_features=81, bias=True)
  (v): Linear(in_features=256, out_features=1, bias=True)
)
2025-01-29 02:54:56,452 tacult.base.utils WARNING CUDA requested but not available! Using CPU instead.
2025-01-29 02:54:56,567 tacult.base.nn_wrapper INFO Network _UtacNNet initialized on device cpu
2025-01-29 02:54:56,725 tacult.base.nn_wrapper INFO Loaded network from ./temp/run3/checkpoint_46.pt
2025-01-29 02:54:56,729 tacult.base.nn_wrapper INFO Network architecture:
2025-01-29 02:54:56,729 tacult.base.nn_wrapper INFO _UtacNNet(
  (conv1): Conv2d(4, 256, kernel_size=(3, 3), stride=(1, 1), padding=(1, 1))
  (conv2): Conv2d(256, 256, kernel_size=(1, 1), stride=(1, 1))
  (conv3): Conv2d(256, 512, kernel_size=(3, 3), stride=(1, 1), padding=(1, 1))
  (conv4): Conv2d(512, 512, kernel_size=(1, 1), stride=(1, 1))
  (bn1): BatchNorm2d(256, eps=1e-05, momentum=0.1, affine=True, track_running_stats=True)
  (bn2): BatchNorm2d(256, eps=1e-05, momentum=0.1, affine=True, track_running_stats=True)
  (bn3): BatchNorm2d(512, eps=1e-05, momentum=0.1, affine=True, track_running_stats=True)
  (bn4): BatchNorm2d(512, eps=1e-05, momentum=0.1, affine=True, track_running_stats=True)
  (fc1): Linear(in_features=41472, out_features=512, bias=True)
  (fc_bn1): BatchNorm1d(512, eps=1e-05, momentum=0.1, affine=True, track_running_stats=True)
  (pi): Linear(in_features=512, out_features=81, bias=True)
  (v): Linear(in_features=512, out_features=1, bias=True)
)
2025-01-29 02:54:56,732 tacult.pit INFO Starting tournament with 1000 rounds and 1 agents
2025-01-29 02:54:56,732 tacult.pit INFO Agents: Random
2025-01-29 02:54:56,732 tacult.pit INFO Starting round 1/1000
2025-01-29 02:57:31,909 __main__ INFO Loading UtacGame...
2025-01-29 02:57:31,910 tacult.base.utils WARNING CUDA requested but not available! Using CPU instead.
2025-01-29 02:57:32,746 tacult.base.nn_wrapper INFO Network _UtacNNet initialized on device cpu
2025-01-29 02:57:32,771 tacult.base.nn_wrapper INFO Loaded network from ./temp/resnet/checkpoint_1.pt
2025-01-29 02:57:32,772 tacult.base.nn_wrapper INFO Network architecture:
2025-01-29 02:57:32,772 tacult.base.nn_wrapper INFO _UtacNNet(
  (conv_in): Conv2d(4, 32, kernel_size=(3, 3), stride=(1, 1), padding=(1, 1))
  (bn_in): BatchNorm2d(32, eps=1e-05, momentum=0.1, affine=True, track_running_stats=True)
  (res1): ResidualBlock(
    (conv1): Conv2d(32, 32, kernel_size=(3, 3), stride=(1, 1), padding=(1, 1))
    (bn1): BatchNorm2d(32, eps=1e-05, momentum=0.1, affine=True, track_running_stats=True)
    (conv2): Conv2d(32, 32, kernel_size=(3, 3), stride=(1, 1), padding=(1, 1))
    (bn2): BatchNorm2d(32, eps=1e-05, momentum=0.1, affine=True, track_running_stats=True)
  )
  (res2): ResidualBlock(
    (conv1): Conv2d(32, 32, kernel_size=(3, 3), stride=(1, 1), padding=(1, 1))
    (bn1): BatchNorm2d(32, eps=1e-05, momentum=0.1, affine=True, track_running_stats=True)
    (conv2): Conv2d(32, 32, kernel_size=(3, 3), stride=(1, 1), padding=(1, 1))
    (bn2): BatchNorm2d(32, eps=1e-05, momentum=0.1, affine=True, track_running_stats=True)
  )
  (fc1): Linear(in_features=2592, out_features=256, bias=True)
  (fc_bn1): BatchNorm1d(256, eps=1e-05, momentum=0.1, affine=True, track_running_stats=True)
  (pi): Linear(in_features=256, out_features=81, bias=True)
  (v): Linear(in_features=256, out_features=1, bias=True)
)
2025-01-29 02:57:32,774 tacult.base.utils WARNING CUDA requested but not available! Using CPU instead.
2025-01-29 02:57:32,782 tacult.base.nn_wrapper INFO Network _UtacNNet initialized on device cpu
2025-01-29 02:57:32,803 tacult.base.nn_wrapper INFO Loaded network from ./temp/resnet/checkpoint_2.pt
2025-01-29 02:57:32,804 tacult.base.nn_wrapper INFO Network architecture:
2025-01-29 02:57:32,804 tacult.base.nn_wrapper INFO _UtacNNet(
  (conv_in): Conv2d(4, 32, kernel_size=(3, 3), stride=(1, 1), padding=(1, 1))
  (bn_in): BatchNorm2d(32, eps=1e-05, momentum=0.1, affine=True, track_running_stats=True)
  (res1): ResidualBlock(
    (conv1): Conv2d(32, 32, kernel_size=(3, 3), stride=(1, 1), padding=(1, 1))
    (bn1): BatchNorm2d(32, eps=1e-05, momentum=0.1, affine=True, track_running_stats=True)
    (conv2): Conv2d(32, 32, kernel_size=(3, 3), stride=(1, 1), padding=(1, 1))
    (bn2): BatchNorm2d(32, eps=1e-05, momentum=0.1, affine=True, track_running_stats=True)
  )
  (res2): ResidualBlock(
    (conv1): Conv2d(32, 32, kernel_size=(3, 3), stride=(1, 1), padding=(1, 1))
    (bn1): BatchNorm2d(32, eps=1e-05, momentum=0.1, affine=True, track_running_stats=True)
    (conv2): Conv2d(32, 32, kernel_size=(3, 3), stride=(1, 1), padding=(1, 1))
    (bn2): BatchNorm2d(32, eps=1e-05, momentum=0.1, affine=True, track_running_stats=True)
  )
  (fc1): Linear(in_features=2592, out_features=256, bias=True)
  (fc_bn1): BatchNorm1d(256, eps=1e-05, momentum=0.1, affine=True, track_running_stats=True)
  (pi): Linear(in_features=256, out_features=81, bias=True)
  (v): Linear(in_features=256, out_features=1, bias=True)
)
2025-01-29 02:57:32,805 tacult.base.utils WARNING CUDA requested but not available! Using CPU instead.
2025-01-29 02:57:32,814 tacult.base.nn_wrapper INFO Network _UtacNNet initialized on device cpu
2025-01-29 02:57:33,018 tacult.base.nn_wrapper INFO Loaded network from ./temp/resnet/checkpoint_5.pt
2025-01-29 02:57:33,018 tacult.base.nn_wrapper INFO Network architecture:
2025-01-29 02:57:33,018 tacult.base.nn_wrapper INFO _UtacNNet(
  (conv_in): Conv2d(4, 32, kernel_size=(3, 3), stride=(1, 1), padding=(1, 1))
  (bn_in): BatchNorm2d(32, eps=1e-05, momentum=0.1, affine=True, track_running_stats=True)
  (res1): ResidualBlock(
    (conv1): Conv2d(32, 32, kernel_size=(3, 3), stride=(1, 1), padding=(1, 1))
    (bn1): BatchNorm2d(32, eps=1e-05, momentum=0.1, affine=True, track_running_stats=True)
    (conv2): Conv2d(32, 32, kernel_size=(3, 3), stride=(1, 1), padding=(1, 1))
    (bn2): BatchNorm2d(32, eps=1e-05, momentum=0.1, affine=True, track_running_stats=True)
  )
  (res2): ResidualBlock(
    (conv1): Conv2d(32, 32, kernel_size=(3, 3), stride=(1, 1), padding=(1, 1))
    (bn1): BatchNorm2d(32, eps=1e-05, momentum=0.1, affine=True, track_running_stats=True)
    (conv2): Conv2d(32, 32, kernel_size=(3, 3), stride=(1, 1), padding=(1, 1))
    (bn2): BatchNorm2d(32, eps=1e-05, momentum=0.1, affine=True, track_running_stats=True)
  )
  (fc1): Linear(in_features=2592, out_features=256, bias=True)
  (fc_bn1): BatchNorm1d(256, eps=1e-05, momentum=0.1, affine=True, track_running_stats=True)
  (pi): Linear(in_features=256, out_features=81, bias=True)
  (v): Linear(in_features=256, out_features=1, bias=True)
)
2025-01-29 02:57:33,019 tacult.base.utils WARNING CUDA requested but not available! Using CPU instead.
2025-01-29 02:57:33,024 tacult.base.nn_wrapper INFO Network _UtacNNet initialized on device cpu
2025-01-29 02:57:33,040 tacult.base.nn_wrapper INFO Loaded network from ./temp/resnet/checkpoint_6.pt
2025-01-29 02:57:33,041 tacult.base.nn_wrapper INFO Network architecture:
2025-01-29 02:57:33,041 tacult.base.nn_wrapper INFO _UtacNNet(
  (conv_in): Conv2d(4, 32, kernel_size=(3, 3), stride=(1, 1), padding=(1, 1))
  (bn_in): BatchNorm2d(32, eps=1e-05, momentum=0.1, affine=True, track_running_stats=True)
  (res1): ResidualBlock(
    (conv1): Conv2d(32, 32, kernel_size=(3, 3), stride=(1, 1), padding=(1, 1))
    (bn1): BatchNorm2d(32, eps=1e-05, momentum=0.1, affine=True, track_running_stats=True)
    (conv2): Conv2d(32, 32, kernel_size=(3, 3), stride=(1, 1), padding=(1, 1))
    (bn2): BatchNorm2d(32, eps=1e-05, momentum=0.1, affine=True, track_running_stats=True)
  )
  (res2): ResidualBlock(
    (conv1): Conv2d(32, 32, kernel_size=(3, 3), stride=(1, 1), padding=(1, 1))
    (bn1): BatchNorm2d(32, eps=1e-05, momentum=0.1, affine=True, track_running_stats=True)
    (conv2): Conv2d(32, 32, kernel_size=(3, 3), stride=(1, 1), padding=(1, 1))
    (bn2): BatchNorm2d(32, eps=1e-05, momentum=0.1, affine=True, track_running_stats=True)
  )
  (fc1): Linear(in_features=2592, out_features=256, bias=True)
  (fc_bn1): BatchNorm1d(256, eps=1e-05, momentum=0.1, affine=True, track_running_stats=True)
  (pi): Linear(in_features=256, out_features=81, bias=True)
  (v): Linear(in_features=256, out_features=1, bias=True)
)
2025-01-29 02:57:33,043 tacult.base.utils WARNING CUDA requested but not available! Using CPU instead.
2025-01-29 02:57:33,052 tacult.base.nn_wrapper INFO Network _UtacNNet initialized on device cpu
2025-01-29 02:57:33,074 tacult.base.nn_wrapper INFO Loaded network from ./temp/resnet/checkpoint_9.pt
2025-01-29 02:57:33,074 tacult.base.nn_wrapper INFO Network architecture:
2025-01-29 02:57:33,074 tacult.base.nn_wrapper INFO _UtacNNet(
  (conv_in): Conv2d(4, 32, kernel_size=(3, 3), stride=(1, 1), padding=(1, 1))
  (bn_in): BatchNorm2d(32, eps=1e-05, momentum=0.1, affine=True, track_running_stats=True)
  (res1): ResidualBlock(
    (conv1): Conv2d(32, 32, kernel_size=(3, 3), stride=(1, 1), padding=(1, 1))
    (bn1): BatchNorm2d(32, eps=1e-05, momentum=0.1, affine=True, track_running_stats=True)
    (conv2): Conv2d(32, 32, kernel_size=(3, 3), stride=(1, 1), padding=(1, 1))
    (bn2): BatchNorm2d(32, eps=1e-05, momentum=0.1, affine=True, track_running_stats=True)
  )
  (res2): ResidualBlock(
    (conv1): Conv2d(32, 32, kernel_size=(3, 3), stride=(1, 1), padding=(1, 1))
    (bn1): BatchNorm2d(32, eps=1e-05, momentum=0.1, affine=True, track_running_stats=True)
    (conv2): Conv2d(32, 32, kernel_size=(3, 3), stride=(1, 1), padding=(1, 1))
    (bn2): BatchNorm2d(32, eps=1e-05, momentum=0.1, affine=True, track_running_stats=True)
  )
  (fc1): Linear(in_features=2592, out_features=256, bias=True)
  (fc_bn1): BatchNorm1d(256, eps=1e-05, momentum=0.1, affine=True, track_running_stats=True)
  (pi): Linear(in_features=256, out_features=81, bias=True)
  (v): Linear(in_features=256, out_features=1, bias=True)
)
2025-01-29 02:57:33,081 tacult.base.utils WARNING CUDA requested but not available! Using CPU instead.
2025-01-29 02:57:33,205 tacult.base.nn_wrapper INFO Network _UtacNNet initialized on device cpu
2025-01-29 02:57:33,423 tacult.base.nn_wrapper INFO Loaded network from ./temp/run3/checkpoint_46.pt
2025-01-29 02:57:33,424 tacult.base.nn_wrapper INFO Network architecture:
2025-01-29 02:57:33,424 tacult.base.nn_wrapper INFO _UtacNNet(
  (conv1): Conv2d(4, 256, kernel_size=(3, 3), stride=(1, 1), padding=(1, 1))
  (conv2): Conv2d(256, 256, kernel_size=(1, 1), stride=(1, 1))
  (conv3): Conv2d(256, 512, kernel_size=(3, 3), stride=(1, 1), padding=(1, 1))
  (conv4): Conv2d(512, 512, kernel_size=(1, 1), stride=(1, 1))
  (bn1): BatchNorm2d(256, eps=1e-05, momentum=0.1, affine=True, track_running_stats=True)
  (bn2): BatchNorm2d(256, eps=1e-05, momentum=0.1, affine=True, track_running_stats=True)
  (bn3): BatchNorm2d(512, eps=1e-05, momentum=0.1, affine=True, track_running_stats=True)
  (bn4): BatchNorm2d(512, eps=1e-05, momentum=0.1, affine=True, track_running_stats=True)
  (fc1): Linear(in_features=41472, out_features=512, bias=True)
  (fc_bn1): BatchNorm1d(512, eps=1e-05, momentum=0.1, affine=True, track_running_stats=True)
  (pi): Linear(in_features=512, out_features=81, bias=True)
  (v): Linear(in_features=512, out_features=1, bias=True)
)
2025-01-29 02:57:33,426 tacult.pit INFO Starting tournament with 1000 rounds and 1 agents
2025-01-29 02:57:33,426 tacult.pit INFO Agents: Random
2025-01-29 02:57:33,427 tacult.pit INFO Starting round 1/1000
2025-01-29 02:59:12,592 __main__ INFO Loading UtacGame...
2025-01-29 02:59:12,595 tacult.base.utils WARNING CUDA requested but not available! Using CPU instead.
2025-01-29 02:59:14,311 tacult.base.nn_wrapper INFO Network _UtacNNet initialized on device cpu
2025-01-29 02:59:14,448 tacult.base.nn_wrapper INFO Loaded network from ./temp/resnet/checkpoint_1.pt
2025-01-29 02:59:14,448 tacult.base.nn_wrapper INFO Network architecture:
2025-01-29 02:59:14,448 tacult.base.nn_wrapper INFO _UtacNNet(
  (conv_in): Conv2d(4, 32, kernel_size=(3, 3), stride=(1, 1), padding=(1, 1))
  (bn_in): BatchNorm2d(32, eps=1e-05, momentum=0.1, affine=True, track_running_stats=True)
  (res1): ResidualBlock(
    (conv1): Conv2d(32, 32, kernel_size=(3, 3), stride=(1, 1), padding=(1, 1))
    (bn1): BatchNorm2d(32, eps=1e-05, momentum=0.1, affine=True, track_running_stats=True)
    (conv2): Conv2d(32, 32, kernel_size=(3, 3), stride=(1, 1), padding=(1, 1))
    (bn2): BatchNorm2d(32, eps=1e-05, momentum=0.1, affine=True, track_running_stats=True)
  )
  (res2): ResidualBlock(
    (conv1): Conv2d(32, 32, kernel_size=(3, 3), stride=(1, 1), padding=(1, 1))
    (bn1): BatchNorm2d(32, eps=1e-05, momentum=0.1, affine=True, track_running_stats=True)
    (conv2): Conv2d(32, 32, kernel_size=(3, 3), stride=(1, 1), padding=(1, 1))
    (bn2): BatchNorm2d(32, eps=1e-05, momentum=0.1, affine=True, track_running_stats=True)
  )
  (fc1): Linear(in_features=2592, out_features=256, bias=True)
  (fc_bn1): BatchNorm1d(256, eps=1e-05, momentum=0.1, affine=True, track_running_stats=True)
  (pi): Linear(in_features=256, out_features=81, bias=True)
  (v): Linear(in_features=256, out_features=1, bias=True)
)
2025-01-29 02:59:14,449 tacult.base.utils WARNING CUDA requested but not available! Using CPU instead.
2025-01-29 02:59:14,470 tacult.base.nn_wrapper INFO Network _UtacNNet initialized on device cpu
2025-01-29 02:59:14,615 tacult.base.nn_wrapper INFO Loaded network from ./temp/resnet/checkpoint_2.pt
2025-01-29 02:59:14,615 tacult.base.nn_wrapper INFO Network architecture:
2025-01-29 02:59:14,616 tacult.base.nn_wrapper INFO _UtacNNet(
  (conv_in): Conv2d(4, 32, kernel_size=(3, 3), stride=(1, 1), padding=(1, 1))
  (bn_in): BatchNorm2d(32, eps=1e-05, momentum=0.1, affine=True, track_running_stats=True)
  (res1): ResidualBlock(
    (conv1): Conv2d(32, 32, kernel_size=(3, 3), stride=(1, 1), padding=(1, 1))
    (bn1): BatchNorm2d(32, eps=1e-05, momentum=0.1, affine=True, track_running_stats=True)
    (conv2): Conv2d(32, 32, kernel_size=(3, 3), stride=(1, 1), padding=(1, 1))
    (bn2): BatchNorm2d(32, eps=1e-05, momentum=0.1, affine=True, track_running_stats=True)
  )
  (res2): ResidualBlock(
    (conv1): Conv2d(32, 32, kernel_size=(3, 3), stride=(1, 1), padding=(1, 1))
    (bn1): BatchNorm2d(32, eps=1e-05, momentum=0.1, affine=True, track_running_stats=True)
    (conv2): Conv2d(32, 32, kernel_size=(3, 3), stride=(1, 1), padding=(1, 1))
    (bn2): BatchNorm2d(32, eps=1e-05, momentum=0.1, affine=True, track_running_stats=True)
  )
  (fc1): Linear(in_features=2592, out_features=256, bias=True)
  (fc_bn1): BatchNorm1d(256, eps=1e-05, momentum=0.1, affine=True, track_running_stats=True)
  (pi): Linear(in_features=256, out_features=81, bias=True)
  (v): Linear(in_features=256, out_features=1, bias=True)
)
2025-01-29 02:59:14,618 tacult.base.utils WARNING CUDA requested but not available! Using CPU instead.
2025-01-29 02:59:14,660 tacult.base.nn_wrapper INFO Network _UtacNNet initialized on device cpu
2025-01-29 02:59:15,032 tacult.base.nn_wrapper INFO Loaded network from ./temp/resnet/checkpoint_5.pt
2025-01-29 02:59:15,033 tacult.base.nn_wrapper INFO Network architecture:
2025-01-29 02:59:15,033 tacult.base.nn_wrapper INFO _UtacNNet(
  (conv_in): Conv2d(4, 32, kernel_size=(3, 3), stride=(1, 1), padding=(1, 1))
  (bn_in): BatchNorm2d(32, eps=1e-05, momentum=0.1, affine=True, track_running_stats=True)
  (res1): ResidualBlock(
    (conv1): Conv2d(32, 32, kernel_size=(3, 3), stride=(1, 1), padding=(1, 1))
    (bn1): BatchNorm2d(32, eps=1e-05, momentum=0.1, affine=True, track_running_stats=True)
    (conv2): Conv2d(32, 32, kernel_size=(3, 3), stride=(1, 1), padding=(1, 1))
    (bn2): BatchNorm2d(32, eps=1e-05, momentum=0.1, affine=True, track_running_stats=True)
  )
  (res2): ResidualBlock(
    (conv1): Conv2d(32, 32, kernel_size=(3, 3), stride=(1, 1), padding=(1, 1))
    (bn1): BatchNorm2d(32, eps=1e-05, momentum=0.1, affine=True, track_running_stats=True)
    (conv2): Conv2d(32, 32, kernel_size=(3, 3), stride=(1, 1), padding=(1, 1))
    (bn2): BatchNorm2d(32, eps=1e-05, momentum=0.1, affine=True, track_running_stats=True)
  )
  (fc1): Linear(in_features=2592, out_features=256, bias=True)
  (fc_bn1): BatchNorm1d(256, eps=1e-05, momentum=0.1, affine=True, track_running_stats=True)
  (pi): Linear(in_features=256, out_features=81, bias=True)
  (v): Linear(in_features=256, out_features=1, bias=True)
)
2025-01-29 02:59:15,035 tacult.base.utils WARNING CUDA requested but not available! Using CPU instead.
2025-01-29 02:59:15,045 tacult.base.nn_wrapper INFO Network _UtacNNet initialized on device cpu
2025-01-29 02:59:15,085 tacult.base.nn_wrapper INFO Loaded network from ./temp/resnet/checkpoint_6.pt
2025-01-29 02:59:15,085 tacult.base.nn_wrapper INFO Network architecture:
2025-01-29 02:59:15,086 tacult.base.nn_wrapper INFO _UtacNNet(
  (conv_in): Conv2d(4, 32, kernel_size=(3, 3), stride=(1, 1), padding=(1, 1))
  (bn_in): BatchNorm2d(32, eps=1e-05, momentum=0.1, affine=True, track_running_stats=True)
  (res1): ResidualBlock(
    (conv1): Conv2d(32, 32, kernel_size=(3, 3), stride=(1, 1), padding=(1, 1))
    (bn1): BatchNorm2d(32, eps=1e-05, momentum=0.1, affine=True, track_running_stats=True)
    (conv2): Conv2d(32, 32, kernel_size=(3, 3), stride=(1, 1), padding=(1, 1))
    (bn2): BatchNorm2d(32, eps=1e-05, momentum=0.1, affine=True, track_running_stats=True)
  )
  (res2): ResidualBlock(
    (conv1): Conv2d(32, 32, kernel_size=(3, 3), stride=(1, 1), padding=(1, 1))
    (bn1): BatchNorm2d(32, eps=1e-05, momentum=0.1, affine=True, track_running_stats=True)
    (conv2): Conv2d(32, 32, kernel_size=(3, 3), stride=(1, 1), padding=(1, 1))
    (bn2): BatchNorm2d(32, eps=1e-05, momentum=0.1, affine=True, track_running_stats=True)
  )
  (fc1): Linear(in_features=2592, out_features=256, bias=True)
  (fc_bn1): BatchNorm1d(256, eps=1e-05, momentum=0.1, affine=True, track_running_stats=True)
  (pi): Linear(in_features=256, out_features=81, bias=True)
  (v): Linear(in_features=256, out_features=1, bias=True)
)
2025-01-29 02:59:15,092 tacult.base.utils WARNING CUDA requested but not available! Using CPU instead.
2025-01-29 02:59:15,100 tacult.base.nn_wrapper INFO Network _UtacNNet initialized on device cpu
2025-01-29 02:59:15,140 tacult.base.nn_wrapper INFO Loaded network from ./temp/resnet/checkpoint_9.pt
2025-01-29 02:59:15,140 tacult.base.nn_wrapper INFO Network architecture:
2025-01-29 02:59:15,146 tacult.base.nn_wrapper INFO _UtacNNet(
  (conv_in): Conv2d(4, 32, kernel_size=(3, 3), stride=(1, 1), padding=(1, 1))
  (bn_in): BatchNorm2d(32, eps=1e-05, momentum=0.1, affine=True, track_running_stats=True)
  (res1): ResidualBlock(
    (conv1): Conv2d(32, 32, kernel_size=(3, 3), stride=(1, 1), padding=(1, 1))
    (bn1): BatchNorm2d(32, eps=1e-05, momentum=0.1, affine=True, track_running_stats=True)
    (conv2): Conv2d(32, 32, kernel_size=(3, 3), stride=(1, 1), padding=(1, 1))
    (bn2): BatchNorm2d(32, eps=1e-05, momentum=0.1, affine=True, track_running_stats=True)
  )
  (res2): ResidualBlock(
    (conv1): Conv2d(32, 32, kernel_size=(3, 3), stride=(1, 1), padding=(1, 1))
    (bn1): BatchNorm2d(32, eps=1e-05, momentum=0.1, affine=True, track_running_stats=True)
    (conv2): Conv2d(32, 32, kernel_size=(3, 3), stride=(1, 1), padding=(1, 1))
    (bn2): BatchNorm2d(32, eps=1e-05, momentum=0.1, affine=True, track_running_stats=True)
  )
  (fc1): Linear(in_features=2592, out_features=256, bias=True)
  (fc_bn1): BatchNorm1d(256, eps=1e-05, momentum=0.1, affine=True, track_running_stats=True)
  (pi): Linear(in_features=256, out_features=81, bias=True)
  (v): Linear(in_features=256, out_features=1, bias=True)
)
2025-01-29 02:59:15,148 tacult.base.utils WARNING CUDA requested but not available! Using CPU instead.
2025-01-29 02:59:15,298 tacult.base.nn_wrapper INFO Network _UtacNNet initialized on device cpu
2025-01-29 02:59:15,547 tacult.base.nn_wrapper INFO Loaded network from ./temp/run3/checkpoint_46.pt
2025-01-29 02:59:15,559 tacult.base.nn_wrapper INFO Network architecture:
2025-01-29 02:59:15,559 tacult.base.nn_wrapper INFO _UtacNNet(
  (conv1): Conv2d(4, 256, kernel_size=(3, 3), stride=(1, 1), padding=(1, 1))
  (conv2): Conv2d(256, 256, kernel_size=(1, 1), stride=(1, 1))
  (conv3): Conv2d(256, 512, kernel_size=(3, 3), stride=(1, 1), padding=(1, 1))
  (conv4): Conv2d(512, 512, kernel_size=(1, 1), stride=(1, 1))
  (bn1): BatchNorm2d(256, eps=1e-05, momentum=0.1, affine=True, track_running_stats=True)
  (bn2): BatchNorm2d(256, eps=1e-05, momentum=0.1, affine=True, track_running_stats=True)
  (bn3): BatchNorm2d(512, eps=1e-05, momentum=0.1, affine=True, track_running_stats=True)
  (bn4): BatchNorm2d(512, eps=1e-05, momentum=0.1, affine=True, track_running_stats=True)
  (fc1): Linear(in_features=41472, out_features=512, bias=True)
  (fc_bn1): BatchNorm1d(512, eps=1e-05, momentum=0.1, affine=True, track_running_stats=True)
  (pi): Linear(in_features=512, out_features=81, bias=True)
  (v): Linear(in_features=512, out_features=1, bias=True)
)
2025-01-29 02:59:15,560 tacult.pit INFO Starting tournament with 1000 rounds and 13 agents
2025-01-29 02:59:15,560 tacult.pit INFO Agents: temp_resnet_iter1_sims2
	temp_resnet_iter1_sims32
	temp_resnet_iter2_sims2
	temp_resnet_iter2_sims32
	temp_resnet_iter5_sims2
	temp_resnet_iter5_sims32
	temp_resnet_iter6_sims2
	temp_resnet_iter6_sims32
	temp_resnet_iter9_sims2
…
2025-01-29 02:59:30,254 tacult.pit INFO Playing match: temp_resnet_iter5_sims32 vs temp_run3_iter46_sims32
2025-01-29 03:00:32,337 __main__ INFO Loading UtacGame...
2025-01-29 03:00:32,339 tacult.base.utils WARNING CUDA requested but not available! Using CPU instead.
2025-01-29 03:00:33,373 tacult.base.nn_wrapper INFO Network _UtacNNet initialized on device cpu
2025-01-29 03:00:33,394 tacult.base.nn_wrapper INFO Loaded network from ./temp/resnet/checkpoint_1.pt
2025-01-29 03:00:33,394 tacult.base.nn_wrapper INFO Network architecture:
2025-01-29 03:00:33,394 tacult.base.nn_wrapper INFO _UtacNNet(
  (conv_in): Conv2d(4, 32, kernel_size=(3, 3), stride=(1, 1), padding=(1, 1))
  (bn_in): BatchNorm2d(32, eps=1e-05, momentum=0.1, affine=True, track_running_stats=True)
  (res1): ResidualBlock(
    (conv1): Conv2d(32, 32, kernel_size=(3, 3), stride=(1, 1), padding=(1, 1))
    (bn1): BatchNorm2d(32, eps=1e-05, momentum=0.1, affine=True, track_running_stats=True)
    (conv2): Conv2d(32, 32, kernel_size=(3, 3), stride=(1, 1), padding=(1, 1))
    (bn2): BatchNorm2d(32, eps=1e-05, momentum=0.1, affine=True, track_running_stats=True)
  )
  (res2): ResidualBlock(
    (conv1): Conv2d(32, 32, kernel_size=(3, 3), stride=(1, 1), padding=(1, 1))
    (bn1): BatchNorm2d(32, eps=1e-05, momentum=0.1, affine=True, track_running_stats=True)
    (conv2): Conv2d(32, 32, kernel_size=(3, 3), stride=(1, 1), padding=(1, 1))
    (bn2): BatchNorm2d(32, eps=1e-05, momentum=0.1, affine=True, track_running_stats=True)
  )
  (fc1): Linear(in_features=2592, out_features=256, bias=True)
  (fc_bn1): BatchNorm1d(256, eps=1e-05, momentum=0.1, affine=True, track_running_stats=True)
  (pi): Linear(in_features=256, out_features=81, bias=True)
  (v): Linear(in_features=256, out_features=1, bias=True)
)
2025-01-29 03:00:33,396 tacult.base.utils WARNING CUDA requested but not available! Using CPU instead.
2025-01-29 03:00:33,402 tacult.base.nn_wrapper INFO Network _UtacNNet initialized on device cpu
2025-01-29 03:00:33,422 tacult.base.nn_wrapper INFO Loaded network from ./temp/resnet/checkpoint_2.pt
2025-01-29 03:00:33,422 tacult.base.nn_wrapper INFO Network architecture:
2025-01-29 03:00:33,422 tacult.base.nn_wrapper INFO _UtacNNet(
  (conv_in): Conv2d(4, 32, kernel_size=(3, 3), stride=(1, 1), padding=(1, 1))
  (bn_in): BatchNorm2d(32, eps=1e-05, momentum=0.1, affine=True, track_running_stats=True)
  (res1): ResidualBlock(
    (conv1): Conv2d(32, 32, kernel_size=(3, 3), stride=(1, 1), padding=(1, 1))
    (bn1): BatchNorm2d(32, eps=1e-05, momentum=0.1, affine=True, track_running_stats=True)
    (conv2): Conv2d(32, 32, kernel_size=(3, 3), stride=(1, 1), padding=(1, 1))
    (bn2): BatchNorm2d(32, eps=1e-05, momentum=0.1, affine=True, track_running_stats=True)
  )
  (res2): ResidualBlock(
    (conv1): Conv2d(32, 32, kernel_size=(3, 3), stride=(1, 1), padding=(1, 1))
    (bn1): BatchNorm2d(32, eps=1e-05, momentum=0.1, affine=True, track_running_stats=True)
    (conv2): Conv2d(32, 32, kernel_size=(3, 3), stride=(1, 1), padding=(1, 1))
    (bn2): BatchNorm2d(32, eps=1e-05, momentum=0.1, affine=True, track_running_stats=True)
  )
  (fc1): Linear(in_features=2592, out_features=256, bias=True)
  (fc_bn1): BatchNorm1d(256, eps=1e-05, momentum=0.1, affine=True, track_running_stats=True)
  (pi): Linear(in_features=256, out_features=81, bias=True)
  (v): Linear(in_features=256, out_features=1, bias=True)
)
2025-01-29 03:00:33,423 tacult.base.utils WARNING CUDA requested but not available! Using CPU instead.
2025-01-29 03:00:33,428 tacult.base.nn_wrapper INFO Network _UtacNNet initialized on device cpu
2025-01-29 03:00:33,633 tacult.base.nn_wrapper INFO Loaded network from ./temp/resnet/checkpoint_5.pt
2025-01-29 03:00:33,634 tacult.base.nn_wrapper INFO Network architecture:
2025-01-29 03:00:33,634 tacult.base.nn_wrapper INFO _UtacNNet(
  (conv_in): Conv2d(4, 32, kernel_size=(3, 3), stride=(1, 1), padding=(1, 1))
  (bn_in): BatchNorm2d(32, eps=1e-05, momentum=0.1, affine=True, track_running_stats=True)
  (res1): ResidualBlock(
    (conv1): Conv2d(32, 32, kernel_size=(3, 3), stride=(1, 1), padding=(1, 1))
    (bn1): BatchNorm2d(32, eps=1e-05, momentum=0.1, affine=True, track_running_stats=True)
    (conv2): Conv2d(32, 32, kernel_size=(3, 3), stride=(1, 1), padding=(1, 1))
    (bn2): BatchNorm2d(32, eps=1e-05, momentum=0.1, affine=True, track_running_stats=True)
  )
  (res2): ResidualBlock(
    (conv1): Conv2d(32, 32, kernel_size=(3, 3), stride=(1, 1), padding=(1, 1))
    (bn1): BatchNorm2d(32, eps=1e-05, momentum=0.1, affine=True, track_running_stats=True)
    (conv2): Conv2d(32, 32, kernel_size=(3, 3), stride=(1, 1), padding=(1, 1))
    (bn2): BatchNorm2d(32, eps=1e-05, momentum=0.1, affine=True, track_running_stats=True)
  )
  (fc1): Linear(in_features=2592, out_features=256, bias=True)
  (fc_bn1): BatchNorm1d(256, eps=1e-05, momentum=0.1, affine=True, track_running_stats=True)
  (pi): Linear(in_features=256, out_features=81, bias=True)
  (v): Linear(in_features=256, out_features=1, bias=True)
)
2025-01-29 03:00:33,635 tacult.base.utils WARNING CUDA requested but not available! Using CPU instead.
2025-01-29 03:00:33,644 tacult.base.nn_wrapper INFO Network _UtacNNet initialized on device cpu
2025-01-29 03:00:33,665 tacult.base.nn_wrapper INFO Loaded network from ./temp/resnet/checkpoint_6.pt
2025-01-29 03:00:33,675 tacult.base.nn_wrapper INFO Network architecture:
2025-01-29 03:00:33,676 tacult.base.nn_wrapper INFO _UtacNNet(
  (conv_in): Conv2d(4, 32, kernel_size=(3, 3), stride=(1, 1), padding=(1, 1))
  (bn_in): BatchNorm2d(32, eps=1e-05, momentum=0.1, affine=True, track_running_stats=True)
  (res1): ResidualBlock(
    (conv1): Conv2d(32, 32, kernel_size=(3, 3), stride=(1, 1), padding=(1, 1))
    (bn1): BatchNorm2d(32, eps=1e-05, momentum=0.1, affine=True, track_running_stats=True)
    (conv2): Conv2d(32, 32, kernel_size=(3, 3), stride=(1, 1), padding=(1, 1))
    (bn2): BatchNorm2d(32, eps=1e-05, momentum=0.1, affine=True, track_running_stats=True)
  )
  (res2): ResidualBlock(
    (conv1): Conv2d(32, 32, kernel_size=(3, 3), stride=(1, 1), padding=(1, 1))
    (bn1): BatchNorm2d(32, eps=1e-05, momentum=0.1, affine=True, track_running_stats=True)
    (conv2): Conv2d(32, 32, kernel_size=(3, 3), stride=(1, 1), padding=(1, 1))
    (bn2): BatchNorm2d(32, eps=1e-05, momentum=0.1, affine=True, track_running_stats=True)
  )
  (fc1): Linear(in_features=2592, out_features=256, bias=True)
  (fc_bn1): BatchNorm1d(256, eps=1e-05, momentum=0.1, affine=True, track_running_stats=True)
  (pi): Linear(in_features=256, out_features=81, bias=True)
  (v): Linear(in_features=256, out_features=1, bias=True)
)
2025-01-29 03:00:33,677 tacult.base.utils WARNING CUDA requested but not available! Using CPU instead.
2025-01-29 03:00:33,684 tacult.base.nn_wrapper INFO Network _UtacNNet initialized on device cpu
2025-01-29 03:00:33,709 tacult.base.nn_wrapper INFO Loaded network from ./temp/resnet/checkpoint_9.pt
2025-01-29 03:00:33,710 tacult.base.nn_wrapper INFO Network architecture:
2025-01-29 03:00:33,710 tacult.base.nn_wrapper INFO _UtacNNet(
  (conv_in): Conv2d(4, 32, kernel_size=(3, 3), stride=(1, 1), padding=(1, 1))
  (bn_in): BatchNorm2d(32, eps=1e-05, momentum=0.1, affine=True, track_running_stats=True)
  (res1): ResidualBlock(
    (conv1): Conv2d(32, 32, kernel_size=(3, 3), stride=(1, 1), padding=(1, 1))
    (bn1): BatchNorm2d(32, eps=1e-05, momentum=0.1, affine=True, track_running_stats=True)
    (conv2): Conv2d(32, 32, kernel_size=(3, 3), stride=(1, 1), padding=(1, 1))
    (bn2): BatchNorm2d(32, eps=1e-05, momentum=0.1, affine=True, track_running_stats=True)
  )
  (res2): ResidualBlock(
    (conv1): Conv2d(32, 32, kernel_size=(3, 3), stride=(1, 1), padding=(1, 1))
    (bn1): BatchNorm2d(32, eps=1e-05, momentum=0.1, affine=True, track_running_stats=True)
    (conv2): Conv2d(32, 32, kernel_size=(3, 3), stride=(1, 1), padding=(1, 1))
    (bn2): BatchNorm2d(32, eps=1e-05, momentum=0.1, affine=True, track_running_stats=True)
  )
  (fc1): Linear(in_features=2592, out_features=256, bias=True)
  (fc_bn1): BatchNorm1d(256, eps=1e-05, momentum=0.1, affine=True, track_running_stats=True)
  (pi): Linear(in_features=256, out_features=81, bias=True)
  (v): Linear(in_features=256, out_features=1, bias=True)
)
2025-01-29 03:00:33,712 tacult.base.utils WARNING CUDA requested but not available! Using CPU instead.
2025-01-29 03:00:33,841 tacult.base.nn_wrapper INFO Network _UtacNNet initialized on device cpu
2025-01-29 03:00:34,036 tacult.base.nn_wrapper INFO Loaded network from ./temp/run3/checkpoint_46.pt
2025-01-29 03:00:34,039 tacult.base.nn_wrapper INFO Network architecture:
2025-01-29 03:00:34,039 tacult.base.nn_wrapper INFO _UtacNNet(
  (conv1): Conv2d(4, 256, kernel_size=(3, 3), stride=(1, 1), padding=(1, 1))
  (conv2): Conv2d(256, 256, kernel_size=(1, 1), stride=(1, 1))
  (conv3): Conv2d(256, 512, kernel_size=(3, 3), stride=(1, 1), padding=(1, 1))
  (conv4): Conv2d(512, 512, kernel_size=(1, 1), stride=(1, 1))
  (bn1): BatchNorm2d(256, eps=1e-05, momentum=0.1, affine=True, track_running_stats=True)
  (bn2): BatchNorm2d(256, eps=1e-05, momentum=0.1, affine=True, track_running_stats=True)
  (bn3): BatchNorm2d(512, eps=1e-05, momentum=0.1, affine=True, track_running_stats=True)
  (bn4): BatchNorm2d(512, eps=1e-05, momentum=0.1, affine=True, track_running_stats=True)
  (fc1): Linear(in_features=41472, out_features=512, bias=True)
  (fc_bn1): BatchNorm1d(512, eps=1e-05, momentum=0.1, affine=True, track_running_stats=True)
  (pi): Linear(in_features=512, out_features=81, bias=True)
  (v): Linear(in_features=512, out_features=1, bias=True)
)
2025-01-29 03:00:34,039 tacult.pit INFO Starting tournament with 1000 rounds and 7 agents
2025-01-29 03:00:34,039 tacult.pit INFO Agents: temp_resnet_iter1_sims2
	temp_resnet_iter2_sims2
	temp_resnet_iter5_sims2
	temp_resnet_iter6_sims2
	temp_resnet_iter9_sims2
	temp_run3_iter46_sims2
	Random
2025-01-29 03:00:34,040 tacult.pit INFO Starting round 1/1000
…
2025-01-29 04:00:58,837 tacult.pit INFO ----------------------------------------------------------------------------------------------------

2025-01-29 04:00:58,837 tacult.pit INFO Playing match: Random vs RawMCTS_sims81_rollouts10
2025-01-29 04:38:17,759 __main__ INFO Loading UtacGame...
2025-01-29 04:38:17,761 tacult.base.utils WARNING CUDA requested but not available! Using CPU instead.
2025-01-29 04:38:18,630 tacult.base.nn_wrapper INFO Network _UtacNNet initialized on device cpu
2025-01-29 04:38:18,713 tacult.base.nn_wrapper INFO Loaded network from ./temp/resnet/checkpoint_1.pt
2025-01-29 04:38:18,714 tacult.base.nn_wrapper INFO Network architecture:
2025-01-29 04:38:18,714 tacult.base.nn_wrapper INFO _UtacNNet(
  (conv_in): Conv2d(4, 32, kernel_size=(3, 3), stride=(1, 1), padding=(1, 1))
  (bn_in): BatchNorm2d(32, eps=1e-05, momentum=0.1, affine=True, track_running_stats=True)
  (res1): ResidualBlock(
    (conv1): Conv2d(32, 32, kernel_size=(3, 3), stride=(1, 1), padding=(1, 1))
    (bn1): BatchNorm2d(32, eps=1e-05, momentum=0.1, affine=True, track_running_stats=True)
    (conv2): Conv2d(32, 32, kernel_size=(3, 3), stride=(1, 1), padding=(1, 1))
    (bn2): BatchNorm2d(32, eps=1e-05, momentum=0.1, affine=True, track_running_stats=True)
  )
  (res2): ResidualBlock(
    (conv1): Conv2d(32, 32, kernel_size=(3, 3), stride=(1, 1), padding=(1, 1))
    (bn1): BatchNorm2d(32, eps=1e-05, momentum=0.1, affine=True, track_running_stats=True)
    (conv2): Conv2d(32, 32, kernel_size=(3, 3), stride=(1, 1), padding=(1, 1))
    (bn2): BatchNorm2d(32, eps=1e-05, momentum=0.1, affine=True, track_running_stats=True)
  )
  (fc1): Linear(in_features=2592, out_features=256, bias=True)
  (fc_bn1): BatchNorm1d(256, eps=1e-05, momentum=0.1, affine=True, track_running_stats=True)
  (pi): Linear(in_features=256, out_features=81, bias=True)
  (v): Linear(in_features=256, out_features=1, bias=True)
)
2025-01-29 04:38:18,715 tacult.base.utils WARNING CUDA requested but not available! Using CPU instead.
2025-01-29 04:38:18,730 tacult.base.nn_wrapper INFO Network _UtacNNet initialized on device cpu
2025-01-29 04:38:18,815 tacult.base.nn_wrapper INFO Loaded network from ./temp/resnet/checkpoint_2.pt
2025-01-29 04:38:18,815 tacult.base.nn_wrapper INFO Network architecture:
2025-01-29 04:38:18,815 tacult.base.nn_wrapper INFO _UtacNNet(
  (conv_in): Conv2d(4, 32, kernel_size=(3, 3), stride=(1, 1), padding=(1, 1))
  (bn_in): BatchNorm2d(32, eps=1e-05, momentum=0.1, affine=True, track_running_stats=True)
  (res1): ResidualBlock(
    (conv1): Conv2d(32, 32, kernel_size=(3, 3), stride=(1, 1), padding=(1, 1))
    (bn1): BatchNorm2d(32, eps=1e-05, momentum=0.1, affine=True, track_running_stats=True)
    (conv2): Conv2d(32, 32, kernel_size=(3, 3), stride=(1, 1), padding=(1, 1))
    (bn2): BatchNorm2d(32, eps=1e-05, momentum=0.1, affine=True, track_running_stats=True)
  )
  (res2): ResidualBlock(
    (conv1): Conv2d(32, 32, kernel_size=(3, 3), stride=(1, 1), padding=(1, 1))
    (bn1): BatchNorm2d(32, eps=1e-05, momentum=0.1, affine=True, track_running_stats=True)
    (conv2): Conv2d(32, 32, kernel_size=(3, 3), stride=(1, 1), padding=(1, 1))
    (bn2): BatchNorm2d(32, eps=1e-05, momentum=0.1, affine=True, track_running_stats=True)
  )
  (fc1): Linear(in_features=2592, out_features=256, bias=True)
  (fc_bn1): BatchNorm1d(256, eps=1e-05, momentum=0.1, affine=True, track_running_stats=True)
  (pi): Linear(in_features=256, out_features=81, bias=True)
  (v): Linear(in_features=256, out_features=1, bias=True)
)
2025-01-29 04:38:18,817 tacult.base.utils WARNING CUDA requested but not available! Using CPU instead.
2025-01-29 04:38:18,829 tacult.base.nn_wrapper INFO Network _UtacNNet initialized on device cpu
2025-01-29 04:38:19,066 tacult.base.nn_wrapper INFO Loaded network from ./temp/resnet/checkpoint_5.pt
2025-01-29 04:38:19,066 tacult.base.nn_wrapper INFO Network architecture:
2025-01-29 04:38:19,066 tacult.base.nn_wrapper INFO _UtacNNet(
  (conv_in): Conv2d(4, 32, kernel_size=(3, 3), stride=(1, 1), padding=(1, 1))
  (bn_in): BatchNorm2d(32, eps=1e-05, momentum=0.1, affine=True, track_running_stats=True)
  (res1): ResidualBlock(
    (conv1): Conv2d(32, 32, kernel_size=(3, 3), stride=(1, 1), padding=(1, 1))
    (bn1): BatchNorm2d(32, eps=1e-05, momentum=0.1, affine=True, track_running_stats=True)
    (conv2): Conv2d(32, 32, kernel_size=(3, 3), stride=(1, 1), padding=(1, 1))
    (bn2): BatchNorm2d(32, eps=1e-05, momentum=0.1, affine=True, track_running_stats=True)
  )
  (res2): ResidualBlock(
    (conv1): Conv2d(32, 32, kernel_size=(3, 3), stride=(1, 1), padding=(1, 1))
    (bn1): BatchNorm2d(32, eps=1e-05, momentum=0.1, affine=True, track_running_stats=True)
    (conv2): Conv2d(32, 32, kernel_size=(3, 3), stride=(1, 1), padding=(1, 1))
    (bn2): BatchNorm2d(32, eps=1e-05, momentum=0.1, affine=True, track_running_stats=True)
  )
  (fc1): Linear(in_features=2592, out_features=256, bias=True)
  (fc_bn1): BatchNorm1d(256, eps=1e-05, momentum=0.1, affine=True, track_running_stats=True)
  (pi): Linear(in_features=256, out_features=81, bias=True)
  (v): Linear(in_features=256, out_features=1, bias=True)
)
2025-01-29 04:38:19,067 tacult.base.utils WARNING CUDA requested but not available! Using CPU instead.
2025-01-29 04:38:19,074 tacult.base.nn_wrapper INFO Network _UtacNNet initialized on device cpu
2025-01-29 04:38:19,181 tacult.base.nn_wrapper INFO Loaded network from ./temp/resnet/checkpoint_6.pt
2025-01-29 04:38:19,183 tacult.base.nn_wrapper INFO Network architecture:
2025-01-29 04:38:19,183 tacult.base.nn_wrapper INFO _UtacNNet(
  (conv_in): Conv2d(4, 32, kernel_size=(3, 3), stride=(1, 1), padding=(1, 1))
  (bn_in): BatchNorm2d(32, eps=1e-05, momentum=0.1, affine=True, track_running_stats=True)
  (res1): ResidualBlock(
    (conv1): Conv2d(32, 32, kernel_size=(3, 3), stride=(1, 1), padding=(1, 1))
    (bn1): BatchNorm2d(32, eps=1e-05, momentum=0.1, affine=True, track_running_stats=True)
    (conv2): Conv2d(32, 32, kernel_size=(3, 3), stride=(1, 1), padding=(1, 1))
    (bn2): BatchNorm2d(32, eps=1e-05, momentum=0.1, affine=True, track_running_stats=True)
  )
  (res2): ResidualBlock(
    (conv1): Conv2d(32, 32, kernel_size=(3, 3), stride=(1, 1), padding=(1, 1))
    (bn1): BatchNorm2d(32, eps=1e-05, momentum=0.1, affine=True, track_running_stats=True)
    (conv2): Conv2d(32, 32, kernel_size=(3, 3), stride=(1, 1), padding=(1, 1))
    (bn2): BatchNorm2d(32, eps=1e-05, momentum=0.1, affine=True, track_running_stats=True)
  )
  (fc1): Linear(in_features=2592, out_features=256, bias=True)
  (fc_bn1): BatchNorm1d(256, eps=1e-05, momentum=0.1, affine=True, track_running_stats=True)
  (pi): Linear(in_features=256, out_features=81, bias=True)
  (v): Linear(in_features=256, out_features=1, bias=True)
)
2025-01-29 04:38:19,185 tacult.base.utils WARNING CUDA requested but not available! Using CPU instead.
2025-01-29 04:38:19,195 tacult.base.nn_wrapper INFO Network _UtacNNet initialized on device cpu
2025-01-29 04:38:19,294 tacult.base.nn_wrapper INFO Loaded network from ./temp/resnet/checkpoint_9.pt
2025-01-29 04:38:19,295 tacult.base.nn_wrapper INFO Network architecture:
2025-01-29 04:38:19,295 tacult.base.nn_wrapper INFO _UtacNNet(
  (conv_in): Conv2d(4, 32, kernel_size=(3, 3), stride=(1, 1), padding=(1, 1))
  (bn_in): BatchNorm2d(32, eps=1e-05, momentum=0.1, affine=True, track_running_stats=True)
  (res1): ResidualBlock(
    (conv1): Conv2d(32, 32, kernel_size=(3, 3), stride=(1, 1), padding=(1, 1))
    (bn1): BatchNorm2d(32, eps=1e-05, momentum=0.1, affine=True, track_running_stats=True)
    (conv2): Conv2d(32, 32, kernel_size=(3, 3), stride=(1, 1), padding=(1, 1))
    (bn2): BatchNorm2d(32, eps=1e-05, momentum=0.1, affine=True, track_running_stats=True)
  )
  (res2): ResidualBlock(
    (conv1): Conv2d(32, 32, kernel_size=(3, 3), stride=(1, 1), padding=(1, 1))
    (bn1): BatchNorm2d(32, eps=1e-05, momentum=0.1, affine=True, track_running_stats=True)
    (conv2): Conv2d(32, 32, kernel_size=(3, 3), stride=(1, 1), padding=(1, 1))
    (bn2): BatchNorm2d(32, eps=1e-05, momentum=0.1, affine=True, track_running_stats=True)
  )
  (fc1): Linear(in_features=2592, out_features=256, bias=True)
  (fc_bn1): BatchNorm1d(256, eps=1e-05, momentum=0.1, affine=True, track_running_stats=True)
  (pi): Linear(in_features=256, out_features=81, bias=True)
  (v): Linear(in_features=256, out_features=1, bias=True)
)
2025-01-29 04:38:19,297 tacult.base.utils WARNING CUDA requested but not available! Using CPU instead.
2025-01-29 04:38:19,305 tacult.base.nn_wrapper INFO Network _UtacNNet initialized on device cpu
2025-01-29 04:38:19,414 tacult.base.nn_wrapper INFO Loaded network from ./temp/resnet/checkpoint_12.pt
2025-01-29 04:38:19,414 tacult.base.nn_wrapper INFO Network architecture:
2025-01-29 04:38:19,414 tacult.base.nn_wrapper INFO _UtacNNet(
  (conv_in): Conv2d(4, 32, kernel_size=(3, 3), stride=(1, 1), padding=(1, 1))
  (bn_in): BatchNorm2d(32, eps=1e-05, momentum=0.1, affine=True, track_running_stats=True)
  (res1): ResidualBlock(
    (conv1): Conv2d(32, 32, kernel_size=(3, 3), stride=(1, 1), padding=(1, 1))
    (bn1): BatchNorm2d(32, eps=1e-05, momentum=0.1, affine=True, track_running_stats=True)
    (conv2): Conv2d(32, 32, kernel_size=(3, 3), stride=(1, 1), padding=(1, 1))
    (bn2): BatchNorm2d(32, eps=1e-05, momentum=0.1, affine=True, track_running_stats=True)
  )
  (res2): ResidualBlock(
    (conv1): Conv2d(32, 32, kernel_size=(3, 3), stride=(1, 1), padding=(1, 1))
    (bn1): BatchNorm2d(32, eps=1e-05, momentum=0.1, affine=True, track_running_stats=True)
    (conv2): Conv2d(32, 32, kernel_size=(3, 3), stride=(1, 1), padding=(1, 1))
    (bn2): BatchNorm2d(32, eps=1e-05, momentum=0.1, affine=True, track_running_stats=True)
  )
  (fc1): Linear(in_features=2592, out_features=256, bias=True)
  (fc_bn1): BatchNorm1d(256, eps=1e-05, momentum=0.1, affine=True, track_running_stats=True)
  (pi): Linear(in_features=256, out_features=81, bias=True)
  (v): Linear(in_features=256, out_features=1, bias=True)
)
2025-01-29 04:38:19,416 tacult.base.utils WARNING CUDA requested but not available! Using CPU instead.
2025-01-29 04:38:19,427 tacult.base.nn_wrapper INFO Network _UtacNNet initialized on device cpu
2025-01-29 04:38:19,462 tacult.base.nn_wrapper INFO Loaded network from ./temp/resnet2/checkpoint_4.pt
2025-01-29 04:38:19,462 tacult.base.nn_wrapper INFO Network architecture:
2025-01-29 04:38:19,463 tacult.base.nn_wrapper INFO _UtacNNet(
  (conv_in): Conv2d(4, 32, kernel_size=(3, 3), stride=(1, 1), padding=(1, 1))
  (bn_in): BatchNorm2d(32, eps=1e-05, momentum=0.1, affine=True, track_running_stats=True)
  (res1): ResidualBlock(
    (conv1): Conv2d(32, 32, kernel_size=(3, 3), stride=(1, 1), padding=(1, 1))
    (bn1): BatchNorm2d(32, eps=1e-05, momentum=0.1, affine=True, track_running_stats=True)
    (conv2): Conv2d(32, 32, kernel_size=(3, 3), stride=(1, 1), padding=(1, 1))
    (bn2): BatchNorm2d(32, eps=1e-05, momentum=0.1, affine=True, track_running_stats=True)
  )
  (res2): ResidualBlock(
    (conv1): Conv2d(32, 32, kernel_size=(3, 3), stride=(1, 1), padding=(1, 1))
    (bn1): BatchNorm2d(32, eps=1e-05, momentum=0.1, affine=True, track_running_stats=True)
    (conv2): Conv2d(32, 32, kernel_size=(3, 3), stride=(1, 1), padding=(1, 1))
    (bn2): BatchNorm2d(32, eps=1e-05, momentum=0.1, affine=True, track_running_stats=True)
  )
  (fc1): Linear(in_features=2592, out_features=256, bias=True)
  (fc_bn1): BatchNorm1d(256, eps=1e-05, momentum=0.1, affine=True, track_running_stats=True)
  (pi): Linear(in_features=256, out_features=81, bias=True)
  (v): Linear(in_features=256, out_features=1, bias=True)
)
2025-01-29 04:38:19,464 tacult.base.utils WARNING CUDA requested but not available! Using CPU instead.
2025-01-29 04:38:19,471 tacult.base.nn_wrapper INFO Network _UtacNNet initialized on device cpu
2025-01-29 04:38:19,500 tacult.base.nn_wrapper INFO Loaded network from ./temp/resnet2/checkpoint_5.pt
2025-01-29 04:38:19,501 tacult.base.nn_wrapper INFO Network architecture:
2025-01-29 04:38:19,501 tacult.base.nn_wrapper INFO _UtacNNet(
  (conv_in): Conv2d(4, 32, kernel_size=(3, 3), stride=(1, 1), padding=(1, 1))
  (bn_in): BatchNorm2d(32, eps=1e-05, momentum=0.1, affine=True, track_running_stats=True)
  (res1): ResidualBlock(
    (conv1): Conv2d(32, 32, kernel_size=(3, 3), stride=(1, 1), padding=(1, 1))
    (bn1): BatchNorm2d(32, eps=1e-05, momentum=0.1, affine=True, track_running_stats=True)
    (conv2): Conv2d(32, 32, kernel_size=(3, 3), stride=(1, 1), padding=(1, 1))
    (bn2): BatchNorm2d(32, eps=1e-05, momentum=0.1, affine=True, track_running_stats=True)
  )
  (res2): ResidualBlock(
    (conv1): Conv2d(32, 32, kernel_size=(3, 3), stride=(1, 1), padding=(1, 1))
    (bn1): BatchNorm2d(32, eps=1e-05, momentum=0.1, affine=True, track_running_stats=True)
    (conv2): Conv2d(32, 32, kernel_size=(3, 3), stride=(1, 1), padding=(1, 1))
    (bn2): BatchNorm2d(32, eps=1e-05, momentum=0.1, affine=True, track_running_stats=True)
  )
  (fc1): Linear(in_features=2592, out_features=256, bias=True)
  (fc_bn1): BatchNorm1d(256, eps=1e-05, momentum=0.1, affine=True, track_running_stats=True)
  (pi): Linear(in_features=256, out_features=81, bias=True)
  (v): Linear(in_features=256, out_features=1, bias=True)
)
2025-01-29 04:38:19,503 tacult.base.utils WARNING CUDA requested but not available! Using CPU instead.
2025-01-29 04:38:19,510 tacult.base.nn_wrapper INFO Network _UtacNNet initialized on device cpu
2025-01-29 04:38:19,524 tacult.base.nn_wrapper INFO Loaded network from ./temp/resnet2/checkpoint_6.pt
2025-01-29 04:38:19,524 tacult.base.nn_wrapper INFO Network architecture:
2025-01-29 04:38:19,524 tacult.base.nn_wrapper INFO _UtacNNet(
  (conv_in): Conv2d(4, 32, kernel_size=(3, 3), stride=(1, 1), padding=(1, 1))
  (bn_in): BatchNorm2d(32, eps=1e-05, momentum=0.1, affine=True, track_running_stats=True)
  (res1): ResidualBlock(
    (conv1): Conv2d(32, 32, kernel_size=(3, 3), stride=(1, 1), padding=(1, 1))
    (bn1): BatchNorm2d(32, eps=1e-05, momentum=0.1, affine=True, track_running_stats=True)
    (conv2): Conv2d(32, 32, kernel_size=(3, 3), stride=(1, 1), padding=(1, 1))
    (bn2): BatchNorm2d(32, eps=1e-05, momentum=0.1, affine=True, track_running_stats=True)
  )
  (res2): ResidualBlock(
    (conv1): Conv2d(32, 32, kernel_size=(3, 3), stride=(1, 1), padding=(1, 1))
    (bn1): BatchNorm2d(32, eps=1e-05, momentum=0.1, affine=True, track_running_stats=True)
    (conv2): Conv2d(32, 32, kernel_size=(3, 3), stride=(1, 1), padding=(1, 1))
    (bn2): BatchNorm2d(32, eps=1e-05, momentum=0.1, affine=True, track_running_stats=True)
  )
  (fc1): Linear(in_features=2592, out_features=256, bias=True)
  (fc_bn1): BatchNorm1d(256, eps=1e-05, momentum=0.1, affine=True, track_running_stats=True)
  (pi): Linear(in_features=256, out_features=81, bias=True)
  (v): Linear(in_features=256, out_features=1, bias=True)
)
2025-01-29 04:38:19,525 tacult.pit INFO Starting tournament with 1000 rounds and 11 agents
2025-01-29 04:38:19,525 tacult.pit INFO Agents: temp_resnet_iter1_sims2
	temp_resnet_iter2_sims2
	temp_resnet_iter5_sims2
	temp_resnet_iter6_sims2
	temp_resnet_iter9_sims2
	temp_resnet_iter12_sims2
	temp_resnet2_iter4_sims2
	temp_resnet2_iter5_sims2
	temp_resnet2_iter6_sims2
…
2025-01-29 04:38:20,494 tacult.pit INFO Playing match: temp_resnet_iter5_sims2 vs RawMCTS_sims81_rollouts10
2025-01-29 04:38:52,310 __main__ INFO Loading UtacGame...
2025-01-29 04:38:52,311 tacult.base.utils WARNING CUDA requested but not available! Using CPU instead.
2025-01-29 04:38:53,378 tacult.base.nn_wrapper INFO Network _UtacNNet initialized on device cpu
2025-01-29 04:38:53,413 tacult.base.nn_wrapper INFO Loaded network from ./temp/resnet/checkpoint_1.pt
2025-01-29 04:38:53,413 tacult.base.nn_wrapper INFO Network architecture:
2025-01-29 04:38:53,413 tacult.base.nn_wrapper INFO _UtacNNet(
  (conv_in): Conv2d(4, 32, kernel_size=(3, 3), stride=(1, 1), padding=(1, 1))
  (bn_in): BatchNorm2d(32, eps=1e-05, momentum=0.1, affine=True, track_running_stats=True)
  (res1): ResidualBlock(
    (conv1): Conv2d(32, 32, kernel_size=(3, 3), stride=(1, 1), padding=(1, 1))
    (bn1): BatchNorm2d(32, eps=1e-05, momentum=0.1, affine=True, track_running_stats=True)
    (conv2): Conv2d(32, 32, kernel_size=(3, 3), stride=(1, 1), padding=(1, 1))
    (bn2): BatchNorm2d(32, eps=1e-05, momentum=0.1, affine=True, track_running_stats=True)
  )
  (res2): ResidualBlock(
    (conv1): Conv2d(32, 32, kernel_size=(3, 3), stride=(1, 1), padding=(1, 1))
    (bn1): BatchNorm2d(32, eps=1e-05, momentum=0.1, affine=True, track_running_stats=True)
    (conv2): Conv2d(32, 32, kernel_size=(3, 3), stride=(1, 1), padding=(1, 1))
    (bn2): BatchNorm2d(32, eps=1e-05, momentum=0.1, affine=True, track_running_stats=True)
  )
  (fc1): Linear(in_features=2592, out_features=256, bias=True)
  (fc_bn1): BatchNorm1d(256, eps=1e-05, momentum=0.1, affine=True, track_running_stats=True)
  (pi): Linear(in_features=256, out_features=81, bias=True)
  (v): Linear(in_features=256, out_features=1, bias=True)
)
2025-01-29 04:38:53,414 tacult.base.utils WARNING CUDA requested but not available! Using CPU instead.
2025-01-29 04:38:53,424 tacult.base.nn_wrapper INFO Network _UtacNNet initialized on device cpu
2025-01-29 04:38:53,444 tacult.base.nn_wrapper INFO Loaded network from ./temp/resnet/checkpoint_2.pt
2025-01-29 04:38:53,444 tacult.base.nn_wrapper INFO Network architecture:
2025-01-29 04:38:53,444 tacult.base.nn_wrapper INFO _UtacNNet(
  (conv_in): Conv2d(4, 32, kernel_size=(3, 3), stride=(1, 1), padding=(1, 1))
  (bn_in): BatchNorm2d(32, eps=1e-05, momentum=0.1, affine=True, track_running_stats=True)
  (res1): ResidualBlock(
    (conv1): Conv2d(32, 32, kernel_size=(3, 3), stride=(1, 1), padding=(1, 1))
    (bn1): BatchNorm2d(32, eps=1e-05, momentum=0.1, affine=True, track_running_stats=True)
    (conv2): Conv2d(32, 32, kernel_size=(3, 3), stride=(1, 1), padding=(1, 1))
    (bn2): BatchNorm2d(32, eps=1e-05, momentum=0.1, affine=True, track_running_stats=True)
  )
  (res2): ResidualBlock(
    (conv1): Conv2d(32, 32, kernel_size=(3, 3), stride=(1, 1), padding=(1, 1))
    (bn1): BatchNorm2d(32, eps=1e-05, momentum=0.1, affine=True, track_running_stats=True)
    (conv2): Conv2d(32, 32, kernel_size=(3, 3), stride=(1, 1), padding=(1, 1))
    (bn2): BatchNorm2d(32, eps=1e-05, momentum=0.1, affine=True, track_running_stats=True)
  )
  (fc1): Linear(in_features=2592, out_features=256, bias=True)
  (fc_bn1): BatchNorm1d(256, eps=1e-05, momentum=0.1, affine=True, track_running_stats=True)
  (pi): Linear(in_features=256, out_features=81, bias=True)
  (v): Linear(in_features=256, out_features=1, bias=True)
)
2025-01-29 04:38:53,446 tacult.base.utils WARNING CUDA requested but not available! Using CPU instead.
2025-01-29 04:38:53,454 tacult.base.nn_wrapper INFO Network _UtacNNet initialized on device cpu
2025-01-29 04:38:53,682 tacult.base.nn_wrapper INFO Loaded network from ./temp/resnet/checkpoint_5.pt
2025-01-29 04:38:53,682 tacult.base.nn_wrapper INFO Network architecture:
2025-01-29 04:38:53,683 tacult.base.nn_wrapper INFO _UtacNNet(
  (conv_in): Conv2d(4, 32, kernel_size=(3, 3), stride=(1, 1), padding=(1, 1))
  (bn_in): BatchNorm2d(32, eps=1e-05, momentum=0.1, affine=True, track_running_stats=True)
  (res1): ResidualBlock(
    (conv1): Conv2d(32, 32, kernel_size=(3, 3), stride=(1, 1), padding=(1, 1))
    (bn1): BatchNorm2d(32, eps=1e-05, momentum=0.1, affine=True, track_running_stats=True)
    (conv2): Conv2d(32, 32, kernel_size=(3, 3), stride=(1, 1), padding=(1, 1))
    (bn2): BatchNorm2d(32, eps=1e-05, momentum=0.1, affine=True, track_running_stats=True)
  )
  (res2): ResidualBlock(
    (conv1): Conv2d(32, 32, kernel_size=(3, 3), stride=(1, 1), padding=(1, 1))
    (bn1): BatchNorm2d(32, eps=1e-05, momentum=0.1, affine=True, track_running_stats=True)
    (conv2): Conv2d(32, 32, kernel_size=(3, 3), stride=(1, 1), padding=(1, 1))
    (bn2): BatchNorm2d(32, eps=1e-05, momentum=0.1, affine=True, track_running_stats=True)
  )
  (fc1): Linear(in_features=2592, out_features=256, bias=True)
  (fc_bn1): BatchNorm1d(256, eps=1e-05, momentum=0.1, affine=True, track_running_stats=True)
  (pi): Linear(in_features=256, out_features=81, bias=True)
  (v): Linear(in_features=256, out_features=1, bias=True)
)
2025-01-29 04:38:53,684 tacult.base.utils WARNING CUDA requested but not available! Using CPU instead.
2025-01-29 04:38:53,692 tacult.base.nn_wrapper INFO Network _UtacNNet initialized on device cpu
2025-01-29 04:38:53,733 tacult.base.nn_wrapper INFO Loaded network from ./temp/resnet/checkpoint_6.pt
2025-01-29 04:38:53,733 tacult.base.nn_wrapper INFO Network architecture:
2025-01-29 04:38:53,734 tacult.base.nn_wrapper INFO _UtacNNet(
  (conv_in): Conv2d(4, 32, kernel_size=(3, 3), stride=(1, 1), padding=(1, 1))
  (bn_in): BatchNorm2d(32, eps=1e-05, momentum=0.1, affine=True, track_running_stats=True)
  (res1): ResidualBlock(
    (conv1): Conv2d(32, 32, kernel_size=(3, 3), stride=(1, 1), padding=(1, 1))
    (bn1): BatchNorm2d(32, eps=1e-05, momentum=0.1, affine=True, track_running_stats=True)
    (conv2): Conv2d(32, 32, kernel_size=(3, 3), stride=(1, 1), padding=(1, 1))
    (bn2): BatchNorm2d(32, eps=1e-05, momentum=0.1, affine=True, track_running_stats=True)
  )
  (res2): ResidualBlock(
    (conv1): Conv2d(32, 32, kernel_size=(3, 3), stride=(1, 1), padding=(1, 1))
    (bn1): BatchNorm2d(32, eps=1e-05, momentum=0.1, affine=True, track_running_stats=True)
    (conv2): Conv2d(32, 32, kernel_size=(3, 3), stride=(1, 1), padding=(1, 1))
    (bn2): BatchNorm2d(32, eps=1e-05, momentum=0.1, affine=True, track_running_stats=True)
  )
  (fc1): Linear(in_features=2592, out_features=256, bias=True)
  (fc_bn1): BatchNorm1d(256, eps=1e-05, momentum=0.1, affine=True, track_running_stats=True)
  (pi): Linear(in_features=256, out_features=81, bias=True)
  (v): Linear(in_features=256, out_features=1, bias=True)
)
2025-01-29 04:38:53,753 tacult.base.utils WARNING CUDA requested but not available! Using CPU instead.
2025-01-29 04:38:53,762 tacult.base.nn_wrapper INFO Network _UtacNNet initialized on device cpu
2025-01-29 04:38:53,781 tacult.base.nn_wrapper INFO Loaded network from ./temp/resnet/checkpoint_9.pt
2025-01-29 04:38:53,782 tacult.base.nn_wrapper INFO Network architecture:
2025-01-29 04:38:53,782 tacult.base.nn_wrapper INFO _UtacNNet(
  (conv_in): Conv2d(4, 32, kernel_size=(3, 3), stride=(1, 1), padding=(1, 1))
  (bn_in): BatchNorm2d(32, eps=1e-05, momentum=0.1, affine=True, track_running_stats=True)
  (res1): ResidualBlock(
    (conv1): Conv2d(32, 32, kernel_size=(3, 3), stride=(1, 1), padding=(1, 1))
    (bn1): BatchNorm2d(32, eps=1e-05, momentum=0.1, affine=True, track_running_stats=True)
    (conv2): Conv2d(32, 32, kernel_size=(3, 3), stride=(1, 1), padding=(1, 1))
    (bn2): BatchNorm2d(32, eps=1e-05, momentum=0.1, affine=True, track_running_stats=True)
  )
  (res2): ResidualBlock(
    (conv1): Conv2d(32, 32, kernel_size=(3, 3), stride=(1, 1), padding=(1, 1))
    (bn1): BatchNorm2d(32, eps=1e-05, momentum=0.1, affine=True, track_running_stats=True)
    (conv2): Conv2d(32, 32, kernel_size=(3, 3), stride=(1, 1), padding=(1, 1))
    (bn2): BatchNorm2d(32, eps=1e-05, momentum=0.1, affine=True, track_running_stats=True)
  )
  (fc1): Linear(in_features=2592, out_features=256, bias=True)
  (fc_bn1): BatchNorm1d(256, eps=1e-05, momentum=0.1, affine=True, track_running_stats=True)
  (pi): Linear(in_features=256, out_features=81, bias=True)
  (v): Linear(in_features=256, out_features=1, bias=True)
)
2025-01-29 04:38:53,783 tacult.base.utils WARNING CUDA requested but not available! Using CPU instead.
2025-01-29 04:38:53,788 tacult.base.nn_wrapper INFO Network _UtacNNet initialized on device cpu
2025-01-29 04:38:53,808 tacult.base.nn_wrapper INFO Loaded network from ./temp/resnet/checkpoint_12.pt
2025-01-29 04:38:53,808 tacult.base.nn_wrapper INFO Network architecture:
2025-01-29 04:38:53,808 tacult.base.nn_wrapper INFO _UtacNNet(
  (conv_in): Conv2d(4, 32, kernel_size=(3, 3), stride=(1, 1), padding=(1, 1))
  (bn_in): BatchNorm2d(32, eps=1e-05, momentum=0.1, affine=True, track_running_stats=True)
  (res1): ResidualBlock(
    (conv1): Conv2d(32, 32, kernel_size=(3, 3), stride=(1, 1), padding=(1, 1))
    (bn1): BatchNorm2d(32, eps=1e-05, momentum=0.1, affine=True, track_running_stats=True)
    (conv2): Conv2d(32, 32, kernel_size=(3, 3), stride=(1, 1), padding=(1, 1))
    (bn2): BatchNorm2d(32, eps=1e-05, momentum=0.1, affine=True, track_running_stats=True)
  )
  (res2): ResidualBlock(
    (conv1): Conv2d(32, 32, kernel_size=(3, 3), stride=(1, 1), padding=(1, 1))
    (bn1): BatchNorm2d(32, eps=1e-05, momentum=0.1, affine=True, track_running_stats=True)
    (conv2): Conv2d(32, 32, kernel_size=(3, 3), stride=(1, 1), padding=(1, 1))
    (bn2): BatchNorm2d(32, eps=1e-05, momentum=0.1, affine=True, track_running_stats=True)
  )
  (fc1): Linear(in_features=2592, out_features=256, bias=True)
  (fc_bn1): BatchNorm1d(256, eps=1e-05, momentum=0.1, affine=True, track_running_stats=True)
  (pi): Linear(in_features=256, out_features=81, bias=True)
  (v): Linear(in_features=256, out_features=1, bias=True)
)
2025-01-29 04:38:53,811 tacult.base.utils WARNING CUDA requested but not available! Using CPU instead.
2025-01-29 04:38:53,818 tacult.base.nn_wrapper INFO Network _UtacNNet initialized on device cpu
2025-01-29 04:38:53,832 tacult.base.nn_wrapper INFO Loaded network from ./temp/resnet2/checkpoint_4.pt
2025-01-29 04:38:53,833 tacult.base.nn_wrapper INFO Network architecture:
2025-01-29 04:38:53,833 tacult.base.nn_wrapper INFO _UtacNNet(
  (conv_in): Conv2d(4, 32, kernel_size=(3, 3), stride=(1, 1), padding=(1, 1))
  (bn_in): BatchNorm2d(32, eps=1e-05, momentum=0.1, affine=True, track_running_stats=True)
  (res1): ResidualBlock(
    (conv1): Conv2d(32, 32, kernel_size=(3, 3), stride=(1, 1), padding=(1, 1))
    (bn1): BatchNorm2d(32, eps=1e-05, momentum=0.1, affine=True, track_running_stats=True)
    (conv2): Conv2d(32, 32, kernel_size=(3, 3), stride=(1, 1), padding=(1, 1))
    (bn2): BatchNorm2d(32, eps=1e-05, momentum=0.1, affine=True, track_running_stats=True)
  )
  (res2): ResidualBlock(
    (conv1): Conv2d(32, 32, kernel_size=(3, 3), stride=(1, 1), padding=(1, 1))
    (bn1): BatchNorm2d(32, eps=1e-05, momentum=0.1, affine=True, track_running_stats=True)
    (conv2): Conv2d(32, 32, kernel_size=(3, 3), stride=(1, 1), padding=(1, 1))
    (bn2): BatchNorm2d(32, eps=1e-05, momentum=0.1, affine=True, track_running_stats=True)
  )
  (fc1): Linear(in_features=2592, out_features=256, bias=True)
  (fc_bn1): BatchNorm1d(256, eps=1e-05, momentum=0.1, affine=True, track_running_stats=True)
  (pi): Linear(in_features=256, out_features=81, bias=True)
  (v): Linear(in_features=256, out_features=1, bias=True)
)
2025-01-29 04:38:53,834 tacult.base.utils WARNING CUDA requested but not available! Using CPU instead.
2025-01-29 04:38:53,840 tacult.base.nn_wrapper INFO Network _UtacNNet initialized on device cpu
2025-01-29 04:38:53,865 tacult.base.nn_wrapper INFO Loaded network from ./temp/resnet2/checkpoint_5.pt
2025-01-29 04:38:53,866 tacult.base.nn_wrapper INFO Network architecture:
2025-01-29 04:38:53,866 tacult.base.nn_wrapper INFO _UtacNNet(
  (conv_in): Conv2d(4, 32, kernel_size=(3, 3), stride=(1, 1), padding=(1, 1))
  (bn_in): BatchNorm2d(32, eps=1e-05, momentum=0.1, affine=True, track_running_stats=True)
  (res1): ResidualBlock(
    (conv1): Conv2d(32, 32, kernel_size=(3, 3), stride=(1, 1), padding=(1, 1))
    (bn1): BatchNorm2d(32, eps=1e-05, momentum=0.1, affine=True, track_running_stats=True)
    (conv2): Conv2d(32, 32, kernel_size=(3, 3), stride=(1, 1), padding=(1, 1))
    (bn2): BatchNorm2d(32, eps=1e-05, momentum=0.1, affine=True, track_running_stats=True)
  )
  (res2): ResidualBlock(
    (conv1): Conv2d(32, 32, kernel_size=(3, 3), stride=(1, 1), padding=(1, 1))
    (bn1): BatchNorm2d(32, eps=1e-05, momentum=0.1, affine=True, track_running_stats=True)
    (conv2): Conv2d(32, 32, kernel_size=(3, 3), stride=(1, 1), padding=(1, 1))
    (bn2): BatchNorm2d(32, eps=1e-05, momentum=0.1, affine=True, track_running_stats=True)
  )
  (fc1): Linear(in_features=2592, out_features=256, bias=True)
  (fc_bn1): BatchNorm1d(256, eps=1e-05, momentum=0.1, affine=True, track_running_stats=True)
  (pi): Linear(in_features=256, out_features=81, bias=True)
  (v): Linear(in_features=256, out_features=1, bias=True)
)
2025-01-29 04:38:53,867 tacult.base.utils WARNING CUDA requested but not available! Using CPU instead.
2025-01-29 04:38:53,872 tacult.base.nn_wrapper INFO Network _UtacNNet initialized on device cpu
2025-01-29 04:38:53,892 tacult.base.nn_wrapper INFO Loaded network from ./temp/resnet2/checkpoint_6.pt
2025-01-29 04:38:53,893 tacult.base.nn_wrapper INFO Network architecture:
2025-01-29 04:38:53,893 tacult.base.nn_wrapper INFO _UtacNNet(
  (conv_in): Conv2d(4, 32, kernel_size=(3, 3), stride=(1, 1), padding=(1, 1))
  (bn_in): BatchNorm2d(32, eps=1e-05, momentum=0.1, affine=True, track_running_stats=True)
  (res1): ResidualBlock(
    (conv1): Conv2d(32, 32, kernel_size=(3, 3), stride=(1, 1), padding=(1, 1))
    (bn1): BatchNorm2d(32, eps=1e-05, momentum=0.1, affine=True, track_running_stats=True)
    (conv2): Conv2d(32, 32, kernel_size=(3, 3), stride=(1, 1), padding=(1, 1))
    (bn2): BatchNorm2d(32, eps=1e-05, momentum=0.1, affine=True, track_running_stats=True)
  )
  (res2): ResidualBlock(
…
2025-01-29 05:26:22,043 tacult.base.nn_wrapper INFO Loaded network from ./temp/resnet/checkpoint_12.pt
2025-01-29 05:26:22,044 tacult.base.nn_wrapper INFO Network architecture:
2025-01-29 05:26:22,044 tacult.base.nn_wrapper INFO _UtacNNet(
  (conv_in): Conv2d(4, 32, kernel_size=(3, 3), stride=(1, 1), padding=(1, 1))
  (bn_in): BatchNorm2d(32, eps=1e-05, momentum=0.1, affine=True, track_running_stats=True)
  (res1): ResidualBlock(
    (conv1): Conv2d(32, 32, kernel_size=(3, 3), stride=(1, 1), padding=(1, 1))
    (bn1): BatchNorm2d(32, eps=1e-05, momentum=0.1, affine=True, track_running_stats=True)
    (conv2): Conv2d(32, 32, kernel_size=(3, 3), stride=(1, 1), padding=(1, 1))
    (bn2): BatchNorm2d(32, eps=1e-05, momentum=0.1, affine=True, track_running_stats=True)
  )
  (res2): ResidualBlock(
    (conv1): Conv2d(32, 32, kernel_size=(3, 3), stride=(1, 1), padding=(1, 1))
    (bn1): BatchNorm2d(32, eps=1e-05, momentum=0.1, affine=True, track_running_stats=True)
    (conv2): Conv2d(32, 32, kernel_size=(3, 3), stride=(1, 1), padding=(1, 1))
    (bn2): BatchNorm2d(32, eps=1e-05, momentum=0.1, affine=True, track_running_stats=True)
  )
  (fc1): Linear(in_features=2592, out_features=256, bias=True)
  (fc_bn1): BatchNorm1d(256, eps=1e-05, momentum=0.1, affine=True, track_running_stats=True)
  (pi): Linear(in_features=256, out_features=81, bias=True)
  (v): Linear(in_features=256, out_features=1, bias=True)
)
2025-01-29 05:26:22,046 tacult.base.utils WARNING CUDA requested but not available! Using CPU instead.
2025-01-29 05:26:22,229 tacult.base.nn_wrapper INFO Network _UtacNNet initialized on device cpu
2025-01-29 05:26:22,458 tacult.base.nn_wrapper INFO Loaded network from ./temp/run3/checkpoint_46.pt
2025-01-29 05:26:22,458 tacult.base.nn_wrapper INFO Network architecture:
2025-01-29 05:26:22,458 tacult.base.nn_wrapper INFO _UtacNNet(
  (conv1): Conv2d(4, 256, kernel_size=(3, 3), stride=(1, 1), padding=(1, 1))
  (conv2): Conv2d(256, 256, kernel_size=(1, 1), stride=(1, 1))
  (conv3): Conv2d(256, 512, kernel_size=(3, 3), stride=(1, 1), padding=(1, 1))
  (conv4): Conv2d(512, 512, kernel_size=(1, 1), stride=(1, 1))
  (bn1): BatchNorm2d(256, eps=1e-05, momentum=0.1, affine=True, track_running_stats=True)
  (bn2): BatchNorm2d(256, eps=1e-05, momentum=0.1, affine=True, track_running_stats=True)
  (bn3): BatchNorm2d(512, eps=1e-05, momentum=0.1, affine=True, track_running_stats=True)
  (bn4): BatchNorm2d(512, eps=1e-05, momentum=0.1, affine=True, track_running_stats=True)
  (fc1): Linear(in_features=41472, out_features=512, bias=True)
  (fc_bn1): BatchNorm1d(512, eps=1e-05, momentum=0.1, affine=True, track_running_stats=True)
  (pi): Linear(in_features=512, out_features=81, bias=True)
  (v): Linear(in_features=512, out_features=1, bias=True)
)
2025-01-29 05:27:07,391 __main__ INFO Loading UtacGame...
2025-01-29 05:27:07,394 tacult.base.utils WARNING CUDA requested but not available! Using CPU instead.
2025-01-29 05:27:08,144 tacult.base.nn_wrapper INFO Network _UtacNNet initialized on device cpu
2025-01-29 05:27:08,155 tacult.base.nn_wrapper INFO Loaded network from ./temp/resnet/checkpoint_1.pt
2025-01-29 05:27:08,155 tacult.base.nn_wrapper INFO Network architecture:
2025-01-29 05:27:08,155 tacult.base.nn_wrapper INFO _UtacNNet(
  (conv_in): Conv2d(4, 32, kernel_size=(3, 3), stride=(1, 1), padding=(1, 1))
  (bn_in): BatchNorm2d(32, eps=1e-05, momentum=0.1, affine=True, track_running_stats=True)
  (res1): ResidualBlock(
    (conv1): Conv2d(32, 32, kernel_size=(3, 3), stride=(1, 1), padding=(1, 1))
    (bn1): BatchNorm2d(32, eps=1e-05, momentum=0.1, affine=True, track_running_stats=True)
    (conv2): Conv2d(32, 32, kernel_size=(3, 3), stride=(1, 1), padding=(1, 1))
    (bn2): BatchNorm2d(32, eps=1e-05, momentum=0.1, affine=True, track_running_stats=True)
  )
  (res2): ResidualBlock(
    (conv1): Conv2d(32, 32, kernel_size=(3, 3), stride=(1, 1), padding=(1, 1))
    (bn1): BatchNorm2d(32, eps=1e-05, momentum=0.1, affine=True, track_running_stats=True)
    (conv2): Conv2d(32, 32, kernel_size=(3, 3), stride=(1, 1), padding=(1, 1))
    (bn2): BatchNorm2d(32, eps=1e-05, momentum=0.1, affine=True, track_running_stats=True)
  )
  (fc1): Linear(in_features=2592, out_features=256, bias=True)
  (fc_bn1): BatchNorm1d(256, eps=1e-05, momentum=0.1, affine=True, track_running_stats=True)
  (pi): Linear(in_features=256, out_features=81, bias=True)
  (v): Linear(in_features=256, out_features=1, bias=True)
)
2025-01-29 05:27:08,156 tacult.base.utils WARNING CUDA requested but not available! Using CPU instead.
2025-01-29 05:27:08,161 tacult.base.nn_wrapper INFO Network _UtacNNet initialized on device cpu
2025-01-29 05:27:08,177 tacult.base.nn_wrapper INFO Loaded network from ./temp/resnet/checkpoint_2.pt
2025-01-29 05:27:08,177 tacult.base.nn_wrapper INFO Network architecture:
2025-01-29 05:27:08,177 tacult.base.nn_wrapper INFO _UtacNNet(
  (conv_in): Conv2d(4, 32, kernel_size=(3, 3), stride=(1, 1), padding=(1, 1))
  (bn_in): BatchNorm2d(32, eps=1e-05, momentum=0.1, affine=True, track_running_stats=True)
  (res1): ResidualBlock(
    (conv1): Conv2d(32, 32, kernel_size=(3, 3), stride=(1, 1), padding=(1, 1))
    (bn1): BatchNorm2d(32, eps=1e-05, momentum=0.1, affine=True, track_running_stats=True)
    (conv2): Conv2d(32, 32, kernel_size=(3, 3), stride=(1, 1), padding=(1, 1))
    (bn2): BatchNorm2d(32, eps=1e-05, momentum=0.1, affine=True, track_running_stats=True)
  )
  (res2): ResidualBlock(
    (conv1): Conv2d(32, 32, kernel_size=(3, 3), stride=(1, 1), padding=(1, 1))
    (bn1): BatchNorm2d(32, eps=1e-05, momentum=0.1, affine=True, track_running_stats=True)
    (conv2): Conv2d(32, 32, kernel_size=(3, 3), stride=(1, 1), padding=(1, 1))
    (bn2): BatchNorm2d(32, eps=1e-05, momentum=0.1, affine=True, track_running_stats=True)
  )
  (fc1): Linear(in_features=2592, out_features=256, bias=True)
  (fc_bn1): BatchNorm1d(256, eps=1e-05, momentum=0.1, affine=True, track_running_stats=True)
  (pi): Linear(in_features=256, out_features=81, bias=True)
  (v): Linear(in_features=256, out_features=1, bias=True)
)
2025-01-29 05:27:08,178 tacult.base.utils WARNING CUDA requested but not available! Using CPU instead.
2025-01-29 05:27:08,184 tacult.base.nn_wrapper INFO Network _UtacNNet initialized on device cpu
2025-01-29 05:27:08,338 tacult.base.nn_wrapper INFO Loaded network from ./temp/resnet/checkpoint_5.pt
2025-01-29 05:27:08,338 tacult.base.nn_wrapper INFO Network architecture:
2025-01-29 05:27:08,338 tacult.base.nn_wrapper INFO _UtacNNet(
  (conv_in): Conv2d(4, 32, kernel_size=(3, 3), stride=(1, 1), padding=(1, 1))
  (bn_in): BatchNorm2d(32, eps=1e-05, momentum=0.1, affine=True, track_running_stats=True)
  (res1): ResidualBlock(
    (conv1): Conv2d(32, 32, kernel_size=(3, 3), stride=(1, 1), padding=(1, 1))
    (bn1): BatchNorm2d(32, eps=1e-05, momentum=0.1, affine=True, track_running_stats=True)
    (conv2): Conv2d(32, 32, kernel_size=(3, 3), stride=(1, 1), padding=(1, 1))
    (bn2): BatchNorm2d(32, eps=1e-05, momentum=0.1, affine=True, track_running_stats=True)
  )
  (res2): ResidualBlock(
    (conv1): Conv2d(32, 32, kernel_size=(3, 3), stride=(1, 1), padding=(1, 1))
    (bn1): BatchNorm2d(32, eps=1e-05, momentum=0.1, affine=True, track_running_stats=True)
    (conv2): Conv2d(32, 32, kernel_size=(3, 3), stride=(1, 1), padding=(1, 1))
    (bn2): BatchNorm2d(32, eps=1e-05, momentum=0.1, affine=True, track_running_stats=True)
  )
  (fc1): Linear(in_features=2592, out_features=256, bias=True)
  (fc_bn1): BatchNorm1d(256, eps=1e-05, momentum=0.1, affine=True, track_running_stats=True)
  (pi): Linear(in_features=256, out_features=81, bias=True)
  (v): Linear(in_features=256, out_features=1, bias=True)
)
2025-01-29 05:27:08,339 tacult.base.utils WARNING CUDA requested but not available! Using CPU instead.
2025-01-29 05:27:08,345 tacult.base.nn_wrapper INFO Network _UtacNNet initialized on device cpu
2025-01-29 05:27:08,354 tacult.base.nn_wrapper INFO Loaded network from ./temp/resnet/checkpoint_6.pt
2025-01-29 05:27:08,354 tacult.base.nn_wrapper INFO Network architecture:
2025-01-29 05:27:08,354 tacult.base.nn_wrapper INFO _UtacNNet(
  (conv_in): Conv2d(4, 32, kernel_size=(3, 3), stride=(1, 1), padding=(1, 1))
  (bn_in): BatchNorm2d(32, eps=1e-05, momentum=0.1, affine=True, track_running_stats=True)
  (res1): ResidualBlock(
    (conv1): Conv2d(32, 32, kernel_size=(3, 3), stride=(1, 1), padding=(1, 1))
    (bn1): BatchNorm2d(32, eps=1e-05, momentum=0.1, affine=True, track_running_stats=True)
    (conv2): Conv2d(32, 32, kernel_size=(3, 3), stride=(1, 1), padding=(1, 1))
    (bn2): BatchNorm2d(32, eps=1e-05, momentum=0.1, affine=True, track_running_stats=True)
  )
  (res2): ResidualBlock(
    (conv1): Conv2d(32, 32, kernel_size=(3, 3), stride=(1, 1), padding=(1, 1))
    (bn1): BatchNorm2d(32, eps=1e-05, momentum=0.1, affine=True, track_running_stats=True)
    (conv2): Conv2d(32, 32, kernel_size=(3, 3), stride=(1, 1), padding=(1, 1))
    (bn2): BatchNorm2d(32, eps=1e-05, momentum=0.1, affine=True, track_running_stats=True)
  )
  (fc1): Linear(in_features=2592, out_features=256, bias=True)
  (fc_bn1): BatchNorm1d(256, eps=1e-05, momentum=0.1, affine=True, track_running_stats=True)
  (pi): Linear(in_features=256, out_features=81, bias=True)
  (v): Linear(in_features=256, out_features=1, bias=True)
)
2025-01-29 05:27:08,355 tacult.base.utils WARNING CUDA requested but not available! Using CPU instead.
2025-01-29 05:27:08,362 tacult.base.nn_wrapper INFO Network _UtacNNet initialized on device cpu
2025-01-29 05:27:08,372 tacult.base.nn_wrapper INFO Loaded network from ./temp/resnet/checkpoint_9.pt
2025-01-29 05:27:08,372 tacult.base.nn_wrapper INFO Network architecture:
2025-01-29 05:27:08,372 tacult.base.nn_wrapper INFO _UtacNNet(
  (conv_in): Conv2d(4, 32, kernel_size=(3, 3), stride=(1, 1), padding=(1, 1))
  (bn_in): BatchNorm2d(32, eps=1e-05, momentum=0.1, affine=True, track_running_stats=True)
  (res1): ResidualBlock(
    (conv1): Conv2d(32, 32, kernel_size=(3, 3), stride=(1, 1), padding=(1, 1))
    (bn1): BatchNorm2d(32, eps=1e-05, momentum=0.1, affine=True, track_running_stats=True)
    (conv2): Conv2d(32, 32, kernel_size=(3, 3), stride=(1, 1), padding=(1, 1))
    (bn2): BatchNorm2d(32, eps=1e-05, momentum=0.1, affine=True, track_running_stats=True)
  )
  (res2): ResidualBlock(
    (conv1): Conv2d(32, 32, kernel_size=(3, 3), stride=(1, 1), padding=(1, 1))
    (bn1): BatchNorm2d(32, eps=1e-05, momentum=0.1, affine=True, track_running_stats=True)
    (conv2): Conv2d(32, 32, kernel_size=(3, 3), stride=(1, 1), padding=(1, 1))
    (bn2): BatchNorm2d(32, eps=1e-05, momentum=0.1, affine=True, track_running_stats=True)
  )
  (fc1): Linear(in_features=2592, out_features=256, bias=True)
  (fc_bn1): BatchNorm1d(256, eps=1e-05, momentum=0.1, affine=True, track_running_stats=True)
  (pi): Linear(in_features=256, out_features=81, bias=True)
  (v): Linear(in_features=256, out_features=1, bias=True)
)
2025-01-29 05:27:08,373 tacult.base.utils WARNING CUDA requested but not available! Using CPU instead.
2025-01-29 05:27:08,382 tacult.base.nn_wrapper INFO Network _UtacNNet initialized on device cpu
2025-01-29 05:27:08,393 tacult.base.nn_wrapper INFO Loaded network from ./temp/resnet/checkpoint_12.pt
2025-01-29 05:27:08,393 tacult.base.nn_wrapper INFO Network architecture:
2025-01-29 05:27:08,393 tacult.base.nn_wrapper INFO _UtacNNet(
  (conv_in): Conv2d(4, 32, kernel_size=(3, 3), stride=(1, 1), padding=(1, 1))
  (bn_in): BatchNorm2d(32, eps=1e-05, momentum=0.1, affine=True, track_running_stats=True)
  (res1): ResidualBlock(
    (conv1): Conv2d(32, 32, kernel_size=(3, 3), stride=(1, 1), padding=(1, 1))
    (bn1): BatchNorm2d(32, eps=1e-05, momentum=0.1, affine=True, track_running_stats=True)
    (conv2): Conv2d(32, 32, kernel_size=(3, 3), stride=(1, 1), padding=(1, 1))
    (bn2): BatchNorm2d(32, eps=1e-05, momentum=0.1, affine=True, track_running_stats=True)
  )
  (res2): ResidualBlock(
    (conv1): Conv2d(32, 32, kernel_size=(3, 3), stride=(1, 1), padding=(1, 1))
    (bn1): BatchNorm2d(32, eps=1e-05, momentum=0.1, affine=True, track_running_stats=True)
    (conv2): Conv2d(32, 32, kernel_size=(3, 3), stride=(1, 1), padding=(1, 1))
    (bn2): BatchNorm2d(32, eps=1e-05, momentum=0.1, affine=True, track_running_stats=True)
  )
  (fc1): Linear(in_features=2592, out_features=256, bias=True)
  (fc_bn1): BatchNorm1d(256, eps=1e-05, momentum=0.1, affine=True, track_running_stats=True)
  (pi): Linear(in_features=256, out_features=81, bias=True)
  (v): Linear(in_features=256, out_features=1, bias=True)
)
2025-01-29 05:27:08,395 tacult.base.utils WARNING CUDA requested but not available! Using CPU instead.
2025-01-29 05:27:08,511 tacult.base.nn_wrapper INFO Network _UtacNNet initialized on device cpu
2025-01-29 05:27:08,685 tacult.base.nn_wrapper INFO Loaded network from ./temp/run3/checkpoint_46.pt
2025-01-29 05:27:08,685 tacult.base.nn_wrapper INFO Network architecture:
2025-01-29 05:27:08,685 tacult.base.nn_wrapper INFO _UtacNNet(
  (conv1): Conv2d(4, 256, kernel_size=(3, 3), stride=(1, 1), padding=(1, 1))
  (conv2): Conv2d(256, 256, kernel_size=(1, 1), stride=(1, 1))
  (conv3): Conv2d(256, 512, kernel_size=(3, 3), stride=(1, 1), padding=(1, 1))
  (conv4): Conv2d(512, 512, kernel_size=(1, 1), stride=(1, 1))
  (bn1): BatchNorm2d(256, eps=1e-05, momentum=0.1, affine=True, track_running_stats=True)
  (bn2): BatchNorm2d(256, eps=1e-05, momentum=0.1, affine=True, track_running_stats=True)
  (bn3): BatchNorm2d(512, eps=1e-05, momentum=0.1, affine=True, track_running_stats=True)
  (bn4): BatchNorm2d(512, eps=1e-05, momentum=0.1, affine=True, track_running_stats=True)
  (fc1): Linear(in_features=41472, out_features=512, bias=True)
  (fc_bn1): BatchNorm1d(512, eps=1e-05, momentum=0.1, affine=True, track_running_stats=True)
  (pi): Linear(in_features=512, out_features=81, bias=True)
  (v): Linear(in_features=512, out_features=1, bias=True)
)
2025-01-29 05:28:31,471 __main__ INFO Loading UtacGame...
2025-01-29 05:28:31,473 tacult.base.utils WARNING CUDA requested but not available! Using CPU instead.
2025-01-29 05:28:32,138 tacult.base.nn_wrapper INFO Network _UtacNNet initialized on device cpu
2025-01-29 05:28:32,148 tacult.base.nn_wrapper INFO Loaded network from ./temp/resnet/checkpoint_1.pt
2025-01-29 05:28:32,149 tacult.base.nn_wrapper INFO Network architecture:
2025-01-29 05:28:32,149 tacult.base.nn_wrapper INFO _UtacNNet(
  (conv_in): Conv2d(4, 32, kernel_size=(3, 3), stride=(1, 1), padding=(1, 1))
  (bn_in): BatchNorm2d(32, eps=1e-05, momentum=0.1, affine=True, track_running_stats=True)
  (res1): ResidualBlock(
    (conv1): Conv2d(32, 32, kernel_size=(3, 3), stride=(1, 1), padding=(1, 1))
    (bn1): BatchNorm2d(32, eps=1e-05, momentum=0.1, affine=True, track_running_stats=True)
    (conv2): Conv2d(32, 32, kernel_size=(3, 3), stride=(1, 1), padding=(1, 1))
    (bn2): BatchNorm2d(32, eps=1e-05, momentum=0.1, affine=True, track_running_stats=True)
  )
  (res2): ResidualBlock(
    (conv1): Conv2d(32, 32, kernel_size=(3, 3), stride=(1, 1), padding=(1, 1))
    (bn1): BatchNorm2d(32, eps=1e-05, momentum=0.1, affine=True, track_running_stats=True)
    (conv2): Conv2d(32, 32, kernel_size=(3, 3), stride=(1, 1), padding=(1, 1))
    (bn2): BatchNorm2d(32, eps=1e-05, momentum=0.1, affine=True, track_running_stats=True)
  )
  (fc1): Linear(in_features=2592, out_features=256, bias=True)
  (fc_bn1): BatchNorm1d(256, eps=1e-05, momentum=0.1, affine=True, track_running_stats=True)
  (pi): Linear(in_features=256, out_features=81, bias=True)
  (v): Linear(in_features=256, out_features=1, bias=True)
)
2025-01-29 05:28:32,150 tacult.base.utils WARNING CUDA requested but not available! Using CPU instead.
2025-01-29 05:28:32,158 tacult.base.nn_wrapper INFO Network _UtacNNet initialized on device cpu
2025-01-29 05:28:32,171 tacult.base.nn_wrapper INFO Loaded network from ./temp/resnet/checkpoint_2.pt
2025-01-29 05:28:32,171 tacult.base.nn_wrapper INFO Network architecture:
2025-01-29 05:28:32,171 tacult.base.nn_wrapper INFO _UtacNNet(
  (conv_in): Conv2d(4, 32, kernel_size=(3, 3), stride=(1, 1), padding=(1, 1))
  (bn_in): BatchNorm2d(32, eps=1e-05, momentum=0.1, affine=True, track_running_stats=True)
  (res1): ResidualBlock(
    (conv1): Conv2d(32, 32, kernel_size=(3, 3), stride=(1, 1), padding=(1, 1))
    (bn1): BatchNorm2d(32, eps=1e-05, momentum=0.1, affine=True, track_running_stats=True)
    (conv2): Conv2d(32, 32, kernel_size=(3, 3), stride=(1, 1), padding=(1, 1))
    (bn2): BatchNorm2d(32, eps=1e-05, momentum=0.1, affine=True, track_running_stats=True)
  )
  (res2): ResidualBlock(
    (conv1): Conv2d(32, 32, kernel_size=(3, 3), stride=(1, 1), padding=(1, 1))
    (bn1): BatchNorm2d(32, eps=1e-05, momentum=0.1, affine=True, track_running_stats=True)
    (conv2): Conv2d(32, 32, kernel_size=(3, 3), stride=(1, 1), padding=(1, 1))
    (bn2): BatchNorm2d(32, eps=1e-05, momentum=0.1, affine=True, track_running_stats=True)
  )
  (fc1): Linear(in_features=2592, out_features=256, bias=True)
  (fc_bn1): BatchNorm1d(256, eps=1e-05, momentum=0.1, affine=True, track_running_stats=True)
  (pi): Linear(in_features=256, out_features=81, bias=True)
  (v): Linear(in_features=256, out_features=1, bias=True)
)
2025-01-29 05:28:32,172 tacult.base.utils WARNING CUDA requested but not available! Using CPU instead.
2025-01-29 05:28:32,178 tacult.base.nn_wrapper INFO Network _UtacNNet initialized on device cpu
2025-01-29 05:28:32,326 tacult.base.nn_wrapper INFO Loaded network from ./temp/resnet/checkpoint_5.pt
2025-01-29 05:28:32,327 tacult.base.nn_wrapper INFO Network architecture:
2025-01-29 05:28:32,327 tacult.base.nn_wrapper INFO _UtacNNet(
  (conv_in): Conv2d(4, 32, kernel_size=(3, 3), stride=(1, 1), padding=(1, 1))
  (bn_in): BatchNorm2d(32, eps=1e-05, momentum=0.1, affine=True, track_running_stats=True)
  (res1): ResidualBlock(
    (conv1): Conv2d(32, 32, kernel_size=(3, 3), stride=(1, 1), padding=(1, 1))
    (bn1): BatchNorm2d(32, eps=1e-05, momentum=0.1, affine=True, track_running_stats=True)
    (conv2): Conv2d(32, 32, kernel_size=(3, 3), stride=(1, 1), padding=(1, 1))
    (bn2): BatchNorm2d(32, eps=1e-05, momentum=0.1, affine=True, track_running_stats=True)
  )
  (res2): ResidualBlock(
    (conv1): Conv2d(32, 32, kernel_size=(3, 3), stride=(1, 1), padding=(1, 1))
    (bn1): BatchNorm2d(32, eps=1e-05, momentum=0.1, affine=True, track_running_stats=True)
    (conv2): Conv2d(32, 32, kernel_size=(3, 3), stride=(1, 1), padding=(1, 1))
    (bn2): BatchNorm2d(32, eps=1e-05, momentum=0.1, affine=True, track_running_stats=True)
  )
  (fc1): Linear(in_features=2592, out_features=256, bias=True)
  (fc_bn1): BatchNorm1d(256, eps=1e-05, momentum=0.1, affine=True, track_running_stats=True)
  (pi): Linear(in_features=256, out_features=81, bias=True)
  (v): Linear(in_features=256, out_features=1, bias=True)
)
2025-01-29 05:28:32,327 tacult.base.utils WARNING CUDA requested but not available! Using CPU instead.
2025-01-29 05:28:32,332 tacult.base.nn_wrapper INFO Network _UtacNNet initialized on device cpu
2025-01-29 05:28:32,344 tacult.base.nn_wrapper INFO Loaded network from ./temp/resnet/checkpoint_6.pt
2025-01-29 05:28:32,344 tacult.base.nn_wrapper INFO Network architecture:
2025-01-29 05:28:32,344 tacult.base.nn_wrapper INFO _UtacNNet(
  (conv_in): Conv2d(4, 32, kernel_size=(3, 3), stride=(1, 1), padding=(1, 1))
  (bn_in): BatchNorm2d(32, eps=1e-05, momentum=0.1, affine=True, track_running_stats=True)
  (res1): ResidualBlock(
    (conv1): Conv2d(32, 32, kernel_size=(3, 3), stride=(1, 1), padding=(1, 1))
    (bn1): BatchNorm2d(32, eps=1e-05, momentum=0.1, affine=True, track_running_stats=True)
    (conv2): Conv2d(32, 32, kernel_size=(3, 3), stride=(1, 1), padding=(1, 1))
    (bn2): BatchNorm2d(32, eps=1e-05, momentum=0.1, affine=True, track_running_stats=True)
  )
  (res2): ResidualBlock(
    (conv1): Conv2d(32, 32, kernel_size=(3, 3), stride=(1, 1), padding=(1, 1))
    (bn1): BatchNorm2d(32, eps=1e-05, momentum=0.1, affine=True, track_running_stats=True)
    (conv2): Conv2d(32, 32, kernel_size=(3, 3), stride=(1, 1), padding=(1, 1))
    (bn2): BatchNorm2d(32, eps=1e-05, momentum=0.1, affine=True, track_running_stats=True)
  )
  (fc1): Linear(in_features=2592, out_features=256, bias=True)
  (fc_bn1): BatchNorm1d(256, eps=1e-05, momentum=0.1, affine=True, track_running_stats=True)
  (pi): Linear(in_features=256, out_features=81, bias=True)
  (v): Linear(in_features=256, out_features=1, bias=True)
)
2025-01-29 05:28:32,346 tacult.base.utils WARNING CUDA requested but not available! Using CPU instead.
2025-01-29 05:28:32,353 tacult.base.nn_wrapper INFO Network _UtacNNet initialized on device cpu
2025-01-29 05:28:32,362 tacult.base.nn_wrapper INFO Loaded network from ./temp/resnet/checkpoint_9.pt
2025-01-29 05:28:32,363 tacult.base.nn_wrapper INFO Network architecture:
2025-01-29 05:28:32,363 tacult.base.nn_wrapper INFO _UtacNNet(
  (conv_in): Conv2d(4, 32, kernel_size=(3, 3), stride=(1, 1), padding=(1, 1))
  (bn_in): BatchNorm2d(32, eps=1e-05, momentum=0.1, affine=True, track_running_stats=True)
  (res1): ResidualBlock(
    (conv1): Conv2d(32, 32, kernel_size=(3, 3), stride=(1, 1), padding=(1, 1))
    (bn1): BatchNorm2d(32, eps=1e-05, momentum=0.1, affine=True, track_running_stats=True)
    (conv2): Conv2d(32, 32, kernel_size=(3, 3), stride=(1, 1), padding=(1, 1))
    (bn2): BatchNorm2d(32, eps=1e-05, momentum=0.1, affine=True, track_running_stats=True)
  )
  (res2): ResidualBlock(
    (conv1): Conv2d(32, 32, kernel_size=(3, 3), stride=(1, 1), padding=(1, 1))
    (bn1): BatchNorm2d(32, eps=1e-05, momentum=0.1, affine=True, track_running_stats=True)
    (conv2): Conv2d(32, 32, kernel_size=(3, 3), stride=(1, 1), padding=(1, 1))
    (bn2): BatchNorm2d(32, eps=1e-05, momentum=0.1, affine=True, track_running_stats=True)
  )
  (fc1): Linear(in_features=2592, out_features=256, bias=True)
  (fc_bn1): BatchNorm1d(256, eps=1e-05, momentum=0.1, affine=True, track_running_stats=True)
  (pi): Linear(in_features=256, out_features=81, bias=True)
  (v): Linear(in_features=256, out_features=1, bias=True)
)
2025-01-29 05:28:32,364 tacult.base.utils WARNING CUDA requested but not available! Using CPU instead.
2025-01-29 05:28:32,369 tacult.base.nn_wrapper INFO Network _UtacNNet initialized on device cpu
2025-01-29 05:28:32,379 tacult.base.nn_wrapper INFO Loaded network from ./temp/resnet/checkpoint_12.pt
2025-01-29 05:28:32,380 tacult.base.nn_wrapper INFO Network architecture:
2025-01-29 05:28:32,380 tacult.base.nn_wrapper INFO _UtacNNet(
  (conv_in): Conv2d(4, 32, kernel_size=(3, 3), stride=(1, 1), padding=(1, 1))
  (bn_in): BatchNorm2d(32, eps=1e-05, momentum=0.1, affine=True, track_running_stats=True)
  (res1): ResidualBlock(
    (conv1): Conv2d(32, 32, kernel_size=(3, 3), stride=(1, 1), padding=(1, 1))
    (bn1): BatchNorm2d(32, eps=1e-05, momentum=0.1, affine=True, track_running_stats=True)
    (conv2): Conv2d(32, 32, kernel_size=(3, 3), stride=(1, 1), padding=(1, 1))
    (bn2): BatchNorm2d(32, eps=1e-05, momentum=0.1, affine=True, track_running_stats=True)
  )
  (res2): ResidualBlock(
    (conv1): Conv2d(32, 32, kernel_size=(3, 3), stride=(1, 1), padding=(1, 1))
    (bn1): BatchNorm2d(32, eps=1e-05, momentum=0.1, affine=True, track_running_stats=True)
    (conv2): Conv2d(32, 32, kernel_size=(3, 3), stride=(1, 1), padding=(1, 1))
    (bn2): BatchNorm2d(32, eps=1e-05, momentum=0.1, affine=True, track_running_stats=True)
  )
  (fc1): Linear(in_features=2592, out_features=256, bias=True)
  (fc_bn1): BatchNorm1d(256, eps=1e-05, momentum=0.1, affine=True, track_running_stats=True)
  (pi): Linear(in_features=256, out_features=81, bias=True)
  (v): Linear(in_features=256, out_features=1, bias=True)
)
2025-01-29 05:28:32,381 tacult.base.utils WARNING CUDA requested but not available! Using CPU instead.
2025-01-29 05:28:32,500 tacult.base.nn_wrapper INFO Network _UtacNNet initialized on device cpu
2025-01-29 05:28:32,675 tacult.base.nn_wrapper INFO Loaded network from ./temp/run3/checkpoint_46.pt
2025-01-29 05:28:32,676 tacult.base.nn_wrapper INFO Network architecture:
2025-01-29 05:28:32,676 tacult.base.nn_wrapper INFO _UtacNNet(
  (conv1): Conv2d(4, 256, kernel_size=(3, 3), stride=(1, 1), padding=(1, 1))
  (conv2): Conv2d(256, 256, kernel_size=(1, 1), stride=(1, 1))
  (conv3): Conv2d(256, 512, kernel_size=(3, 3), stride=(1, 1), padding=(1, 1))
  (conv4): Conv2d(512, 512, kernel_size=(1, 1), stride=(1, 1))
  (bn1): BatchNorm2d(256, eps=1e-05, momentum=0.1, affine=True, track_running_stats=True)
  (bn2): BatchNorm2d(256, eps=1e-05, momentum=0.1, affine=True, track_running_stats=True)
  (bn3): BatchNorm2d(512, eps=1e-05, momentum=0.1, affine=True, track_running_stats=True)
  (bn4): BatchNorm2d(512, eps=1e-05, momentum=0.1, affine=True, track_running_stats=True)
  (fc1): Linear(in_features=41472, out_features=512, bias=True)
  (fc_bn1): BatchNorm1d(512, eps=1e-05, momentum=0.1, affine=True, track_running_stats=True)
  (pi): Linear(in_features=512, out_features=81, bias=True)
  (v): Linear(in_features=512, out_features=1, bias=True)
)
2025-01-29 05:28:32,676 tacult.pit INFO Starting tournament with 1000 rounds and 10 agents
2025-01-29 05:28:32,676 tacult.pit INFO Agents: temp_resnet_iter1_sims2
	temp_resnet_iter2_sims2
	temp_resnet_iter5_sims2
	temp_resnet_iter6_sims2
	temp_resnet_iter9_sims2
	temp_resnet_iter12_sims2
	temp_run3_iter46_sims2
	Random
	RawMCTS_sims9_rollouts10
	RawMCTS_sims81_rollouts10
…
2025-01-29 05:29:05,165 tacult.pit INFO Playing match: temp_resnet_iter5_sims2 vs RawMCTS_sims81_rollouts10
2025-01-29 10:41:19,432 __main__ INFO Loading UtacGame...
2025-01-29 10:41:19,434 tacult.base.utils WARNING CUDA requested but not available! Using CPU instead.
2025-01-29 10:41:20,075 tacult.base.nn_wrapper INFO Network _UtacNNet initialized on device cpu
2025-01-29 10:41:20,086 tacult.base.nn_wrapper INFO Loaded network from ./temp/resnet/checkpoint_1.pt
2025-01-29 10:41:20,087 tacult.base.nn_wrapper INFO Network architecture:
2025-01-29 10:41:20,087 tacult.base.nn_wrapper INFO _UtacNNet(
  (conv_in): Conv2d(4, 32, kernel_size=(3, 3), stride=(1, 1), padding=(1, 1))
  (bn_in): BatchNorm2d(32, eps=1e-05, momentum=0.1, affine=True, track_running_stats=True)
  (res1): ResidualBlock(
    (conv1): Conv2d(32, 32, kernel_size=(3, 3), stride=(1, 1), padding=(1, 1))
    (bn1): BatchNorm2d(32, eps=1e-05, momentum=0.1, affine=True, track_running_stats=True)
    (conv2): Conv2d(32, 32, kernel_size=(3, 3), stride=(1, 1), padding=(1, 1))
    (bn2): BatchNorm2d(32, eps=1e-05, momentum=0.1, affine=True, track_running_stats=True)
  )
  (res2): ResidualBlock(
    (conv1): Conv2d(32, 32, kernel_size=(3, 3), stride=(1, 1), padding=(1, 1))
    (bn1): BatchNorm2d(32, eps=1e-05, momentum=0.1, affine=True, track_running_stats=True)
    (conv2): Conv2d(32, 32, kernel_size=(3, 3), stride=(1, 1), padding=(1, 1))
    (bn2): BatchNorm2d(32, eps=1e-05, momentum=0.1, affine=True, track_running_stats=True)
  )
  (fc1): Linear(in_features=2592, out_features=256, bias=True)
  (fc_bn1): BatchNorm1d(256, eps=1e-05, momentum=0.1, affine=True, track_running_stats=True)
  (pi): Linear(in_features=256, out_features=81, bias=True)
  (v): Linear(in_features=256, out_features=1, bias=True)
)
2025-01-29 10:41:20,088 tacult.base.utils WARNING CUDA requested but not available! Using CPU instead.
2025-01-29 10:41:20,096 tacult.base.nn_wrapper INFO Network _UtacNNet initialized on device cpu
2025-01-29 10:41:20,108 tacult.base.nn_wrapper INFO Loaded network from ./temp/resnet/checkpoint_2.pt
2025-01-29 10:41:20,108 tacult.base.nn_wrapper INFO Network architecture:
2025-01-29 10:41:20,108 tacult.base.nn_wrapper INFO _UtacNNet(
  (conv_in): Conv2d(4, 32, kernel_size=(3, 3), stride=(1, 1), padding=(1, 1))
  (bn_in): BatchNorm2d(32, eps=1e-05, momentum=0.1, affine=True, track_running_stats=True)
  (res1): ResidualBlock(
    (conv1): Conv2d(32, 32, kernel_size=(3, 3), stride=(1, 1), padding=(1, 1))
    (bn1): BatchNorm2d(32, eps=1e-05, momentum=0.1, affine=True, track_running_stats=True)
    (conv2): Conv2d(32, 32, kernel_size=(3, 3), stride=(1, 1), padding=(1, 1))
    (bn2): BatchNorm2d(32, eps=1e-05, momentum=0.1, affine=True, track_running_stats=True)
  )
  (res2): ResidualBlock(
    (conv1): Conv2d(32, 32, kernel_size=(3, 3), stride=(1, 1), padding=(1, 1))
    (bn1): BatchNorm2d(32, eps=1e-05, momentum=0.1, affine=True, track_running_stats=True)
    (conv2): Conv2d(32, 32, kernel_size=(3, 3), stride=(1, 1), padding=(1, 1))
    (bn2): BatchNorm2d(32, eps=1e-05, momentum=0.1, affine=True, track_running_stats=True)
  )
  (fc1): Linear(in_features=2592, out_features=256, bias=True)
  (fc_bn1): BatchNorm1d(256, eps=1e-05, momentum=0.1, affine=True, track_running_stats=True)
  (pi): Linear(in_features=256, out_features=81, bias=True)
  (v): Linear(in_features=256, out_features=1, bias=True)
)
2025-01-29 10:41:20,109 tacult.base.utils WARNING CUDA requested but not available! Using CPU instead.
2025-01-29 10:41:20,113 tacult.base.nn_wrapper INFO Network _UtacNNet initialized on device cpu
2025-01-29 10:41:20,267 tacult.base.nn_wrapper INFO Loaded network from ./temp/resnet/checkpoint_5.pt
2025-01-29 10:41:20,267 tacult.base.nn_wrapper INFO Network architecture:
2025-01-29 10:41:20,267 tacult.base.nn_wrapper INFO _UtacNNet(
  (conv_in): Conv2d(4, 32, kernel_size=(3, 3), stride=(1, 1), padding=(1, 1))
  (bn_in): BatchNorm2d(32, eps=1e-05, momentum=0.1, affine=True, track_running_stats=True)
  (res1): ResidualBlock(
    (conv1): Conv2d(32, 32, kernel_size=(3, 3), stride=(1, 1), padding=(1, 1))
    (bn1): BatchNorm2d(32, eps=1e-05, momentum=0.1, affine=True, track_running_stats=True)
    (conv2): Conv2d(32, 32, kernel_size=(3, 3), stride=(1, 1), padding=(1, 1))
    (bn2): BatchNorm2d(32, eps=1e-05, momentum=0.1, affine=True, track_running_stats=True)
  )
  (res2): ResidualBlock(
    (conv1): Conv2d(32, 32, kernel_size=(3, 3), stride=(1, 1), padding=(1, 1))
    (bn1): BatchNorm2d(32, eps=1e-05, momentum=0.1, affine=True, track_running_stats=True)
    (conv2): Conv2d(32, 32, kernel_size=(3, 3), stride=(1, 1), padding=(1, 1))
    (bn2): BatchNorm2d(32, eps=1e-05, momentum=0.1, affine=True, track_running_stats=True)
  )
  (fc1): Linear(in_features=2592, out_features=256, bias=True)
  (fc_bn1): BatchNorm1d(256, eps=1e-05, momentum=0.1, affine=True, track_running_stats=True)
  (pi): Linear(in_features=256, out_features=81, bias=True)
  (v): Linear(in_features=256, out_features=1, bias=True)
)
2025-01-29 10:41:20,268 tacult.base.utils WARNING CUDA requested but not available! Using CPU instead.
2025-01-29 10:41:20,272 tacult.base.nn_wrapper INFO Network _UtacNNet initialized on device cpu
2025-01-29 10:41:20,284 tacult.base.nn_wrapper INFO Loaded network from ./temp/resnet/checkpoint_6.pt
2025-01-29 10:41:20,284 tacult.base.nn_wrapper INFO Network architecture:
2025-01-29 10:41:20,284 tacult.base.nn_wrapper INFO _UtacNNet(
  (conv_in): Conv2d(4, 32, kernel_size=(3, 3), stride=(1, 1), padding=(1, 1))
  (bn_in): BatchNorm2d(32, eps=1e-05, momentum=0.1, affine=True, track_running_stats=True)
  (res1): ResidualBlock(
    (conv1): Conv2d(32, 32, kernel_size=(3, 3), stride=(1, 1), padding=(1, 1))
    (bn1): BatchNorm2d(32, eps=1e-05, momentum=0.1, affine=True, track_running_stats=True)
    (conv2): Conv2d(32, 32, kernel_size=(3, 3), stride=(1, 1), padding=(1, 1))
    (bn2): BatchNorm2d(32, eps=1e-05, momentum=0.1, affine=True, track_running_stats=True)
  )
  (res2): ResidualBlock(
    (conv1): Conv2d(32, 32, kernel_size=(3, 3), stride=(1, 1), padding=(1, 1))
    (bn1): BatchNorm2d(32, eps=1e-05, momentum=0.1, affine=True, track_running_stats=True)
    (conv2): Conv2d(32, 32, kernel_size=(3, 3), stride=(1, 1), padding=(1, 1))
    (bn2): BatchNorm2d(32, eps=1e-05, momentum=0.1, affine=True, track_running_stats=True)
  )
  (fc1): Linear(in_features=2592, out_features=256, bias=True)
  (fc_bn1): BatchNorm1d(256, eps=1e-05, momentum=0.1, affine=True, track_running_stats=True)
  (pi): Linear(in_features=256, out_features=81, bias=True)
  (v): Linear(in_features=256, out_features=1, bias=True)
)
2025-01-29 10:41:20,285 tacult.base.utils WARNING CUDA requested but not available! Using CPU instead.
2025-01-29 10:41:20,290 tacult.base.nn_wrapper INFO Network _UtacNNet initialized on device cpu
2025-01-29 10:41:20,301 tacult.base.nn_wrapper INFO Loaded network from ./temp/resnet/checkpoint_9.pt
2025-01-29 10:41:20,301 tacult.base.nn_wrapper INFO Network architecture:
2025-01-29 10:41:20,301 tacult.base.nn_wrapper INFO _UtacNNet(
  (conv_in): Conv2d(4, 32, kernel_size=(3, 3), stride=(1, 1), padding=(1, 1))
  (bn_in): BatchNorm2d(32, eps=1e-05, momentum=0.1, affine=True, track_running_stats=True)
  (res1): ResidualBlock(
    (conv1): Conv2d(32, 32, kernel_size=(3, 3), stride=(1, 1), padding=(1, 1))
    (bn1): BatchNorm2d(32, eps=1e-05, momentum=0.1, affine=True, track_running_stats=True)
    (conv2): Conv2d(32, 32, kernel_size=(3, 3), stride=(1, 1), padding=(1, 1))
    (bn2): BatchNorm2d(32, eps=1e-05, momentum=0.1, affine=True, track_running_stats=True)
  )
  (res2): ResidualBlock(
    (conv1): Conv2d(32, 32, kernel_size=(3, 3), stride=(1, 1), padding=(1, 1))
    (bn1): BatchNorm2d(32, eps=1e-05, momentum=0.1, affine=True, track_running_stats=True)
    (conv2): Conv2d(32, 32, kernel_size=(3, 3), stride=(1, 1), padding=(1, 1))
    (bn2): BatchNorm2d(32, eps=1e-05, momentum=0.1, affine=True, track_running_stats=True)
  )
  (fc1): Linear(in_features=2592, out_features=256, bias=True)
  (fc_bn1): BatchNorm1d(256, eps=1e-05, momentum=0.1, affine=True, track_running_stats=True)
  (pi): Linear(in_features=256, out_features=81, bias=True)
  (v): Linear(in_features=256, out_features=1, bias=True)
)
2025-01-29 10:41:20,302 tacult.base.utils WARNING CUDA requested but not available! Using CPU instead.
2025-01-29 10:41:20,306 tacult.base.nn_wrapper INFO Network _UtacNNet initialized on device cpu
2025-01-29 10:41:20,318 tacult.base.nn_wrapper INFO Loaded network from ./temp/resnet/checkpoint_12.pt
2025-01-29 10:41:20,318 tacult.base.nn_wrapper INFO Network architecture:
2025-01-29 10:41:20,318 tacult.base.nn_wrapper INFO _UtacNNet(
  (conv_in): Conv2d(4, 32, kernel_size=(3, 3), stride=(1, 1), padding=(1, 1))
  (bn_in): BatchNorm2d(32, eps=1e-05, momentum=0.1, affine=True, track_running_stats=True)
  (res1): ResidualBlock(
    (conv1): Conv2d(32, 32, kernel_size=(3, 3), stride=(1, 1), padding=(1, 1))
    (bn1): BatchNorm2d(32, eps=1e-05, momentum=0.1, affine=True, track_running_stats=True)
    (conv2): Conv2d(32, 32, kernel_size=(3, 3), stride=(1, 1), padding=(1, 1))
    (bn2): BatchNorm2d(32, eps=1e-05, momentum=0.1, affine=True, track_running_stats=True)
  )
  (res2): ResidualBlock(
    (conv1): Conv2d(32, 32, kernel_size=(3, 3), stride=(1, 1), padding=(1, 1))
    (bn1): BatchNorm2d(32, eps=1e-05, momentum=0.1, affine=True, track_running_stats=True)
    (conv2): Conv2d(32, 32, kernel_size=(3, 3), stride=(1, 1), padding=(1, 1))
    (bn2): BatchNorm2d(32, eps=1e-05, momentum=0.1, affine=True, track_running_stats=True)
  )
  (fc1): Linear(in_features=2592, out_features=256, bias=True)
  (fc_bn1): BatchNorm1d(256, eps=1e-05, momentum=0.1, affine=True, track_running_stats=True)
  (pi): Linear(in_features=256, out_features=81, bias=True)
  (v): Linear(in_features=256, out_features=1, bias=True)
)
2025-01-29 10:41:20,320 tacult.base.utils WARNING CUDA requested but not available! Using CPU instead.
2025-01-29 10:41:20,329 tacult.base.nn_wrapper INFO Network _UtacNNet initialized on device cpu
2025-01-29 10:41:20,347 tacult.base.nn_wrapper INFO Loaded network from ./temp/resnet2/checkpoint_2.pt
2025-01-29 10:41:20,347 tacult.base.nn_wrapper INFO Network architecture:
2025-01-29 10:41:20,347 tacult.base.nn_wrapper INFO _UtacNNet(
  (conv_in): Conv2d(4, 64, kernel_size=(3, 3), stride=(1, 1), padding=(1, 1))
  (bn_in): BatchNorm2d(64, eps=1e-05, momentum=0.1, affine=True, track_running_stats=True)
  (res1): ResidualBlock(
    (conv1): Conv2d(64, 64, kernel_size=(3, 3), stride=(1, 1), padding=(1, 1))
    (bn1): BatchNorm2d(64, eps=1e-05, momentum=0.1, affine=True, track_running_stats=True)
    (conv2): Conv2d(64, 64, kernel_size=(3, 3), stride=(1, 1), padding=(1, 1))
    (bn2): BatchNorm2d(64, eps=1e-05, momentum=0.1, affine=True, track_running_stats=True)
  )
  (res2): ResidualBlock(
    (conv1): Conv2d(64, 64, kernel_size=(3, 3), stride=(1, 1), padding=(1, 1))
    (bn1): BatchNorm2d(64, eps=1e-05, momentum=0.1, affine=True, track_running_stats=True)
    (conv2): Conv2d(64, 64, kernel_size=(3, 3), stride=(1, 1), padding=(1, 1))
    (bn2): BatchNorm2d(64, eps=1e-05, momentum=0.1, affine=True, track_running_stats=True)
  )
  (fc1): Linear(in_features=5184, out_features=256, bias=True)
  (fc_bn1): BatchNorm1d(256, eps=1e-05, momentum=0.1, affine=True, track_running_stats=True)
  (pi): Linear(in_features=256, out_features=81, bias=True)
  (v): Linear(in_features=256, out_features=1, bias=True)
)
2025-01-29 10:41:20,348 tacult.base.utils WARNING CUDA requested but not available! Using CPU instead.
2025-01-29 10:41:20,355 tacult.base.nn_wrapper INFO Network _UtacNNet initialized on device cpu
2025-01-29 10:41:20,373 tacult.base.nn_wrapper INFO Loaded network from ./temp/resnet2/checkpoint_6.pt
2025-01-29 10:41:20,373 tacult.base.nn_wrapper INFO Network architecture:
2025-01-29 10:41:20,374 tacult.base.nn_wrapper INFO _UtacNNet(
  (conv_in): Conv2d(4, 64, kernel_size=(3, 3), stride=(1, 1), padding=(1, 1))
  (bn_in): BatchNorm2d(64, eps=1e-05, momentum=0.1, affine=True, track_running_stats=True)
  (res1): ResidualBlock(
    (conv1): Conv2d(64, 64, kernel_size=(3, 3), stride=(1, 1), padding=(1, 1))
    (bn1): BatchNorm2d(64, eps=1e-05, momentum=0.1, affine=True, track_running_stats=True)
    (conv2): Conv2d(64, 64, kernel_size=(3, 3), stride=(1, 1), padding=(1, 1))
    (bn2): BatchNorm2d(64, eps=1e-05, momentum=0.1, affine=True, track_running_stats=True)
  )
  (res2): ResidualBlock(
    (conv1): Conv2d(64, 64, kernel_size=(3, 3), stride=(1, 1), padding=(1, 1))
    (bn1): BatchNorm2d(64, eps=1e-05, momentum=0.1, affine=True, track_running_stats=True)
    (conv2): Conv2d(64, 64, kernel_size=(3, 3), stride=(1, 1), padding=(1, 1))
    (bn2): BatchNorm2d(64, eps=1e-05, momentum=0.1, affine=True, track_running_stats=True)
  )
  (fc1): Linear(in_features=5184, out_features=256, bias=True)
  (fc_bn1): BatchNorm1d(256, eps=1e-05, momentum=0.1, affine=True, track_running_stats=True)
  (pi): Linear(in_features=256, out_features=81, bias=True)
  (v): Linear(in_features=256, out_features=1, bias=True)
)
2025-01-29 10:41:20,375 tacult.base.utils WARNING CUDA requested but not available! Using CPU instead.
2025-01-29 10:41:20,383 tacult.base.nn_wrapper INFO Network _UtacNNet initialized on device cpu
2025-01-29 10:41:20,400 tacult.base.nn_wrapper INFO Loaded network from ./temp/resnet2/checkpoint_7.pt
2025-01-29 10:41:20,401 tacult.base.nn_wrapper INFO Network architecture:
2025-01-29 10:41:20,401 tacult.base.nn_wrapper INFO _UtacNNet(
  (conv_in): Conv2d(4, 64, kernel_size=(3, 3), stride=(1, 1), padding=(1, 1))
  (bn_in): BatchNorm2d(64, eps=1e-05, momentum=0.1, affine=True, track_running_stats=True)
  (res1): ResidualBlock(
    (conv1): Conv2d(64, 64, kernel_size=(3, 3), stride=(1, 1), padding=(1, 1))
    (bn1): BatchNorm2d(64, eps=1e-05, momentum=0.1, affine=True, track_running_stats=True)
    (conv2): Conv2d(64, 64, kernel_size=(3, 3), stride=(1, 1), padding=(1, 1))
    (bn2): BatchNorm2d(64, eps=1e-05, momentum=0.1, affine=True, track_running_stats=True)
  )
  (res2): ResidualBlock(
    (conv1): Conv2d(64, 64, kernel_size=(3, 3), stride=(1, 1), padding=(1, 1))
    (bn1): BatchNorm2d(64, eps=1e-05, momentum=0.1, affine=True, track_running_stats=True)
    (conv2): Conv2d(64, 64, kernel_size=(3, 3), stride=(1, 1), padding=(1, 1))
    (bn2): BatchNorm2d(64, eps=1e-05, momentum=0.1, affine=True, track_running_stats=True)
  )
  (fc1): Linear(in_features=5184, out_features=256, bias=True)
  (fc_bn1): BatchNorm1d(256, eps=1e-05, momentum=0.1, affine=True, track_running_stats=True)
  (pi): Linear(in_features=256, out_features=81, bias=True)
  (v): Linear(in_features=256, out_features=1, bias=True)
)
2025-01-29 10:41:20,402 tacult.base.utils WARNING CUDA requested but not available! Using CPU instead.
2025-01-29 10:41:20,412 tacult.base.nn_wrapper INFO Network _UtacNNet initialized on device cpu
2025-01-29 10:41:20,429 tacult.base.nn_wrapper INFO Loaded network from ./temp/resnet2/checkpoint_13.pt
2025-01-29 10:41:20,429 tacult.base.nn_wrapper INFO Network architecture:
2025-01-29 10:41:20,429 tacult.base.nn_wrapper INFO _UtacNNet(
  (conv_in): Conv2d(4, 64, kernel_size=(3, 3), stride=(1, 1), padding=(1, 1))
  (bn_in): BatchNorm2d(64, eps=1e-05, momentum=0.1, affine=True, track_running_stats=True)
  (res1): ResidualBlock(
    (conv1): Conv2d(64, 64, kernel_size=(3, 3), stride=(1, 1), padding=(1, 1))
    (bn1): BatchNorm2d(64, eps=1e-05, momentum=0.1, affine=True, track_running_stats=True)
    (conv2): Conv2d(64, 64, kernel_size=(3, 3), stride=(1, 1), padding=(1, 1))
    (bn2): BatchNorm2d(64, eps=1e-05, momentum=0.1, affine=True, track_running_stats=True)
  )
  (res2): ResidualBlock(
    (conv1): Conv2d(64, 64, kernel_size=(3, 3), stride=(1, 1), padding=(1, 1))
    (bn1): BatchNorm2d(64, eps=1e-05, momentum=0.1, affine=True, track_running_stats=True)
    (conv2): Conv2d(64, 64, kernel_size=(3, 3), stride=(1, 1), padding=(1, 1))
    (bn2): BatchNorm2d(64, eps=1e-05, momentum=0.1, affine=True, track_running_stats=True)
  )
  (fc1): Linear(in_features=5184, out_features=256, bias=True)
  (fc_bn1): BatchNorm1d(256, eps=1e-05, momentum=0.1, affine=True, track_running_stats=True)
  (pi): Linear(in_features=256, out_features=81, bias=True)
  (v): Linear(in_features=256, out_features=1, bias=True)
)
2025-01-29 10:41:20,430 tacult.base.utils WARNING CUDA requested but not available! Using CPU instead.
2025-01-29 10:41:20,439 tacult.base.nn_wrapper INFO Network _UtacNNet initialized on device cpu
2025-01-29 10:41:20,458 tacult.base.nn_wrapper INFO Loaded network from ./temp/resnet2/checkpoint_15.pt
2025-01-29 10:41:20,458 tacult.base.nn_wrapper INFO Network architecture:
2025-01-29 10:41:20,458 tacult.base.nn_wrapper INFO _UtacNNet(
  (conv_in): Conv2d(4, 64, kernel_size=(3, 3), stride=(1, 1), padding=(1, 1))
  (bn_in): BatchNorm2d(64, eps=1e-05, momentum=0.1, affine=True, track_running_stats=True)
  (res1): ResidualBlock(
    (conv1): Conv2d(64, 64, kernel_size=(3, 3), stride=(1, 1), padding=(1, 1))
    (bn1): BatchNorm2d(64, eps=1e-05, momentum=0.1, affine=True, track_running_stats=True)
    (conv2): Conv2d(64, 64, kernel_size=(3, 3), stride=(1, 1), padding=(1, 1))
    (bn2): BatchNorm2d(64, eps=1e-05, momentum=0.1, affine=True, track_running_stats=True)
  )
  (res2): ResidualBlock(
    (conv1): Conv2d(64, 64, kernel_size=(3, 3), stride=(1, 1), padding=(1, 1))
    (bn1): BatchNorm2d(64, eps=1e-05, momentum=0.1, affine=True, track_running_stats=True)
    (conv2): Conv2d(64, 64, kernel_size=(3, 3), stride=(1, 1), padding=(1, 1))
    (bn2): BatchNorm2d(64, eps=1e-05, momentum=0.1, affine=True, track_running_stats=True)
  )
  (fc1): Linear(in_features=5184, out_features=256, bias=True)
  (fc_bn1): BatchNorm1d(256, eps=1e-05, momentum=0.1, affine=True, track_running_stats=True)
  (pi): Linear(in_features=256, out_features=81, bias=True)
  (v): Linear(in_features=256, out_features=1, bias=True)
)
2025-01-29 10:41:20,459 tacult.base.utils WARNING CUDA requested but not available! Using CPU instead.
2025-01-29 10:41:20,467 tacult.base.nn_wrapper INFO Network _UtacNNet initialized on device cpu
2025-01-29 10:41:20,485 tacult.base.nn_wrapper INFO Loaded network from ./temp/resnet2/checkpoint_18.pt
2025-01-29 10:41:20,485 tacult.base.nn_wrapper INFO Network architecture:
2025-01-29 10:41:20,485 tacult.base.nn_wrapper INFO _UtacNNet(
  (conv_in): Conv2d(4, 64, kernel_size=(3, 3), stride=(1, 1), padding=(1, 1))
  (bn_in): BatchNorm2d(64, eps=1e-05, momentum=0.1, affine=True, track_running_stats=True)
  (res1): ResidualBlock(
    (conv1): Conv2d(64, 64, kernel_size=(3, 3), stride=(1, 1), padding=(1, 1))
    (bn1): BatchNorm2d(64, eps=1e-05, momentum=0.1, affine=True, track_running_stats=True)
    (conv2): Conv2d(64, 64, kernel_size=(3, 3), stride=(1, 1), padding=(1, 1))
    (bn2): BatchNorm2d(64, eps=1e-05, momentum=0.1, affine=True, track_running_stats=True)
  )
  (res2): ResidualBlock(
    (conv1): Conv2d(64, 64, kernel_size=(3, 3), stride=(1, 1), padding=(1, 1))
    (bn1): BatchNorm2d(64, eps=1e-05, momentum=0.1, affine=True, track_running_stats=True)
    (conv2): Conv2d(64, 64, kernel_size=(3, 3), stride=(1, 1), padding=(1, 1))
    (bn2): BatchNorm2d(64, eps=1e-05, momentum=0.1, affine=True, track_running_stats=True)
  )
  (fc1): Linear(in_features=5184, out_features=256, bias=True)
  (fc_bn1): BatchNorm1d(256, eps=1e-05, momentum=0.1, affine=True, track_running_stats=True)
  (pi): Linear(in_features=256, out_features=81, bias=True)
  (v): Linear(in_features=256, out_features=1, bias=True)
)
2025-01-29 10:41:20,486 tacult.base.utils WARNING CUDA requested but not available! Using CPU instead.
2025-01-29 10:41:20,495 tacult.base.nn_wrapper INFO Network _UtacNNet initialized on device cpu
2025-01-29 10:41:20,512 tacult.base.nn_wrapper INFO Loaded network from ./temp/resnet2/checkpoint_21.pt
2025-01-29 10:41:20,512 tacult.base.nn_wrapper INFO Network architecture:
2025-01-29 10:41:20,512 tacult.base.nn_wrapper INFO _UtacNNet(
  (conv_in): Conv2d(4, 64, kernel_size=(3, 3), stride=(1, 1), padding=(1, 1))
  (bn_in): BatchNorm2d(64, eps=1e-05, momentum=0.1, affine=True, track_running_stats=True)
  (res1): ResidualBlock(
    (conv1): Conv2d(64, 64, kernel_size=(3, 3), stride=(1, 1), padding=(1, 1))
    (bn1): BatchNorm2d(64, eps=1e-05, momentum=0.1, affine=True, track_running_stats=True)
    (conv2): Conv2d(64, 64, kernel_size=(3, 3), stride=(1, 1), padding=(1, 1))
    (bn2): BatchNorm2d(64, eps=1e-05, momentum=0.1, affine=True, track_running_stats=True)
  )
  (res2): ResidualBlock(
    (conv1): Conv2d(64, 64, kernel_size=(3, 3), stride=(1, 1), padding=(1, 1))
    (bn1): BatchNorm2d(64, eps=1e-05, momentum=0.1, affine=True, track_running_stats=True)
    (conv2): Conv2d(64, 64, kernel_size=(3, 3), stride=(1, 1), padding=(1, 1))
    (bn2): BatchNorm2d(64, eps=1e-05, momentum=0.1, affine=True, track_running_stats=True)
  )
  (fc1): Linear(in_features=5184, out_features=256, bias=True)
  (fc_bn1): BatchNorm1d(256, eps=1e-05, momentum=0.1, affine=True, track_running_stats=True)
  (pi): Linear(in_features=256, out_features=81, bias=True)
  (v): Linear(in_features=256, out_features=1, bias=True)
)
2025-01-29 10:41:20,513 tacult.base.utils WARNING CUDA requested but not available! Using CPU instead.
2025-01-29 10:41:20,523 tacult.base.nn_wrapper INFO Network _UtacNNet initialized on device cpu
2025-01-29 10:41:20,540 tacult.base.nn_wrapper INFO Loaded network from ./temp/resnet2/checkpoint_22.pt
2025-01-29 10:41:20,540 tacult.base.nn_wrapper INFO Network architecture:
2025-01-29 10:41:20,540 tacult.base.nn_wrapper INFO _UtacNNet(
  (conv_in): Conv2d(4, 64, kernel_size=(3, 3), stride=(1, 1), padding=(1, 1))
  (bn_in): BatchNorm2d(64, eps=1e-05, momentum=0.1, affine=True, track_running_stats=True)
  (res1): ResidualBlock(
    (conv1): Conv2d(64, 64, kernel_size=(3, 3), stride=(1, 1), padding=(1, 1))
    (bn1): BatchNorm2d(64, eps=1e-05, momentum=0.1, affine=True, track_running_stats=True)
    (conv2): Conv2d(64, 64, kernel_size=(3, 3), stride=(1, 1), padding=(1, 1))
    (bn2): BatchNorm2d(64, eps=1e-05, momentum=0.1, affine=True, track_running_stats=True)
  )
  (res2): ResidualBlock(
    (conv1): Conv2d(64, 64, kernel_size=(3, 3), stride=(1, 1), padding=(1, 1))
    (bn1): BatchNorm2d(64, eps=1e-05, momentum=0.1, affine=True, track_running_stats=True)
    (conv2): Conv2d(64, 64, kernel_size=(3, 3), stride=(1, 1), padding=(1, 1))
    (bn2): BatchNorm2d(64, eps=1e-05, momentum=0.1, affine=True, track_running_stats=True)
  )
  (fc1): Linear(in_features=5184, out_features=256, bias=True)
  (fc_bn1): BatchNorm1d(256, eps=1e-05, momentum=0.1, affine=True, track_running_stats=True)
  (pi): Linear(in_features=256, out_features=81, bias=True)
  (v): Linear(in_features=256, out_features=1, bias=True)
)
2025-01-29 10:41:20,541 tacult.base.utils WARNING CUDA requested but not available! Using CPU instead.
2025-01-29 10:41:20,650 tacult.base.nn_wrapper INFO Network _UtacNNet initialized on device cpu
2025-01-29 10:41:20,819 tacult.base.nn_wrapper INFO Loaded network from ./temp/run3/checkpoint_46.pt
2025-01-29 10:41:20,819 tacult.base.nn_wrapper INFO Network architecture:
2025-01-29 10:41:20,819 tacult.base.nn_wrapper INFO _UtacNNet(
  (conv1): Conv2d(4, 256, kernel_size=(3, 3), stride=(1, 1), padding=(1, 1))
  (conv2): Conv2d(256, 256, kernel_size=(1, 1), stride=(1, 1))
  (conv3): Conv2d(256, 512, kernel_size=(3, 3), stride=(1, 1), padding=(1, 1))
  (conv4): Conv2d(512, 512, kernel_size=(1, 1), stride=(1, 1))
  (bn1): BatchNorm2d(256, eps=1e-05, momentum=0.1, affine=True, track_running_stats=True)
  (bn2): BatchNorm2d(256, eps=1e-05, momentum=0.1, affine=True, track_running_stats=True)
  (bn3): BatchNorm2d(512, eps=1e-05, momentum=0.1, affine=True, track_running_stats=True)
  (bn4): BatchNorm2d(512, eps=1e-05, momentum=0.1, affine=True, track_running_stats=True)
  (fc1): Linear(in_features=41472, out_features=512, bias=True)
  (fc_bn1): BatchNorm1d(512, eps=1e-05, momentum=0.1, affine=True, track_running_stats=True)
  (pi): Linear(in_features=512, out_features=81, bias=True)
  (v): Linear(in_features=512, out_features=1, bias=True)
)
2025-01-29 10:41:20,820 tacult.pit INFO Starting tournament with 1000 rounds and 18 agents
2025-01-29 10:41:20,820 tacult.pit INFO Agents: temp_resnet_iter1_sims2
	temp_resnet_iter2_sims2
	temp_resnet_iter5_sims2
	temp_resnet_iter6_sims2
	temp_resnet_iter9_sims2
	temp_resnet_iter12_sims2
	temp_resnet2_iter2_sims2
	temp_resnet2_iter6_sims2
	temp_resnet2_iter7_sims2
…
